…
     Layer (type)                                                Input Shape                                                                                    Output Shape                                               Param #    
========================================================================================================================================================================================================================================
       Conv2D-1                                              [[1, 3, 256, 256]]                                                                               [1, 64, 256, 256]                                             1,728     
   SyncBatchNorm-1                                           [[1, 64, 256, 256]]                                                                              [1, 64, 256, 256]                                              256      
     ConvBNReLU-1                                            [[1, 3, 256, 256]]                                                                               [1, 64, 256, 256]                                               0       
       Conv2D-2                                              [[1, 64, 256, 256]]                                                                              [1, 64, 256, 256]                                            36,864     
   SyncBatchNorm-2                                           [[1, 64, 256, 256]]                                                                              [1, 64, 256, 256]                                              256      
     ConvBNReLU-2                                            [[1, 64, 256, 256]]                                                                              [1, 64, 256, 256]                                               0       
       Conv2D-6                                              [[1, 64, 256, 256]]                                                                              [1, 64, 256, 256]                                             4,096     
   SyncBatchNorm-6                                           [[1, 64, 256, 256]]                                                                              [1, 64, 256, 256]                                              256      
     ConvBNReLU-6                                            [[1, 64, 256, 256]]                                                                              [1, 64, 256, 256]                                               0       
       Conv2D-7                                              [[1, 64, 256, 256]]                                                                              [1, 64, 256, 256]                                            36,864     
   SyncBatchNorm-7                                           [[1, 64, 256, 256]]                                                                              [1, 64, 256, 256]                                              256      
     ConvBNReLU-7                                            [[1, 64, 256, 256]]                                                                              [1, 64, 256, 256]                                               0       
       Conv2D-8                                              [[1, 64, 256, 256]]                                                                             [1, 256, 256, 256]                                            16,384     
   SyncBatchNorm-8                                          [[1, 256, 256, 256]]                                                                             [1, 256, 256, 256]                                             1,024     
       ConvBN-1                                              [[1, 64, 256, 256]]                                                                             [1, 256, 256, 256]                                               0       
       Conv2D-9                                              [[1, 64, 256, 256]]                                                                             [1, 256, 256, 256]                                            16,384     
   SyncBatchNorm-9                                          [[1, 256, 256, 256]]                                                                             [1, 256, 256, 256]                                             1,024     
       ConvBN-2                                              [[1, 64, 256, 256]]                                                                             [1, 256, 256, 256]                                               0       
  BottleneckBlock-1                                          [[1, 64, 256, 256]]                                                                             [1, 256, 256, 256]                                               0       
      Conv2D-10                                             [[1, 256, 256, 256]]                                                                              [1, 64, 256, 256]                                            16,384     
   SyncBatchNorm-10                                          [[1, 64, 256, 256]]                                                                              [1, 64, 256, 256]                                              256      
     ConvBNReLU-8                                           [[1, 256, 256, 256]]                                                                              [1, 64, 256, 256]                                               0       
      Conv2D-11                                              [[1, 64, 256, 256]]                                                                              [1, 64, 256, 256]                                            36,864     
   SyncBatchNorm-11                                          [[1, 64, 256, 256]]                                                                              [1, 64, 256, 256]                                              256      
     ConvBNReLU-9                                            [[1, 64, 256, 256]]                                                                              [1, 64, 256, 256]                                               0       
      Conv2D-12                                              [[1, 64, 256, 256]]                                                                             [1, 256, 256, 256]                                            16,384     
   SyncBatchNorm-12                                         [[1, 256, 256, 256]]                                                                             [1, 256, 256, 256]                                             1,024     
       ConvBN-3                                              [[1, 64, 256, 256]]                                                                             [1, 256, 256, 256]                                               0       
  BottleneckBlock-2                                         [[1, 256, 256, 256]]                                                                             [1, 256, 256, 256]                                               0       
      Conv2D-13                                             [[1, 256, 256, 256]]                                                                              [1, 64, 256, 256]                                            16,384     
   SyncBatchNorm-13                                          [[1, 64, 256, 256]]                                                                              [1, 64, 256, 256]                                              256      
    ConvBNReLU-10                                           [[1, 256, 256, 256]]                                                                              [1, 64, 256, 256]                                               0       
      Conv2D-14                                              [[1, 64, 256, 256]]                                                                              [1, 64, 256, 256]                                            36,864     
   SyncBatchNorm-14                                          [[1, 64, 256, 256]]                                                                              [1, 64, 256, 256]                                              256      
    ConvBNReLU-11                                            [[1, 64, 256, 256]]                                                                              [1, 64, 256, 256]                                               0       
      Conv2D-15                                              [[1, 64, 256, 256]]                                                                             [1, 256, 256, 256]                                            16,384     
   SyncBatchNorm-15                                         [[1, 256, 256, 256]]                                                                             [1, 256, 256, 256]                                             1,024     
       ConvBN-4                                              [[1, 64, 256, 256]]                                                                             [1, 256, 256, 256]                                               0       
  BottleneckBlock-3                                         [[1, 256, 256, 256]]                                                                             [1, 256, 256, 256]                                               0       
      Conv2D-16                                             [[1, 256, 256, 256]]                                                                              [1, 64, 256, 256]                                            16,384     
   SyncBatchNorm-16                                          [[1, 64, 256, 256]]                                                                              [1, 64, 256, 256]                                              256      
    ConvBNReLU-12                                           [[1, 256, 256, 256]]                                                                              [1, 64, 256, 256]                                               0       
      Conv2D-17                                              [[1, 64, 256, 256]]                                                                              [1, 64, 256, 256]                                            36,864     
   SyncBatchNorm-17                                          [[1, 64, 256, 256]]                                                                              [1, 64, 256, 256]                                              256      
    ConvBNReLU-13                                            [[1, 64, 256, 256]]                                                                              [1, 64, 256, 256]                                               0       
      Conv2D-18                                              [[1, 64, 256, 256]]                                                                             [1, 256, 256, 256]                                            16,384     
   SyncBatchNorm-18                                         [[1, 256, 256, 256]]                                                                             [1, 256, 256, 256]                                             1,024     
       ConvBN-5                                              [[1, 64, 256, 256]]                                                                             [1, 256, 256, 256]                                               0       
  BottleneckBlock-4                                         [[1, 256, 256, 256]]                                                                             [1, 256, 256, 256]                                               0       
       Layer1-1                                              [[1, 64, 256, 256]]                                                                             [1, 256, 256, 256]                                               0       
      Conv2D-19                                             [[1, 256, 256, 256]]                                                                              [1, 64, 256, 256]                                            147,456    
   SyncBatchNorm-19                                          [[1, 64, 256, 256]]                                                                              [1, 64, 256, 256]                                              256      
    ConvBNReLU-14                                           [[1, 256, 256, 256]]                                                                              [1, 64, 256, 256]                                               0       
      Conv2D-20                                             [[1, 256, 256, 256]]                                                                             [1, 128, 128, 128]                                            294,912    
   SyncBatchNorm-20                                         [[1, 128, 128, 128]]                                                                             [1, 128, 128, 128]                                              512      
    ConvBNReLU-15                                           [[1, 256, 256, 256]]                                                                             [1, 128, 128, 128]                                               0       
  TransitionLayer-1                                        [[[1, 256, 256, 256]]]                                                                  [[1, 64, 256, 256], [1, 128, 128, 128]]                                    0       
      Conv2D-21                                              [[1, 64, 256, 256]]                                                                              [1, 64, 256, 256]                                            36,864     
   SyncBatchNorm-21                                          [[1, 64, 256, 256]]                                                                              [1, 64, 256, 256]                                              256      
    ConvBNReLU-16                                            [[1, 64, 256, 256]]                                                                              [1, 64, 256, 256]                                               0       
      Conv2D-22                                              [[1, 64, 256, 256]]                                                                              [1, 64, 256, 256]                                            36,864     
   SyncBatchNorm-22                                          [[1, 64, 256, 256]]                                                                              [1, 64, 256, 256]                                              256      
       ConvBN-6                                              [[1, 64, 256, 256]]                                                                              [1, 64, 256, 256]                                               0       
     BasicBlock-1                                            [[1, 64, 256, 256]]                                                                              [1, 64, 256, 256]                                               0       
      Conv2D-23                                              [[1, 64, 256, 256]]                                                                              [1, 64, 256, 256]                                            36,864     
   SyncBatchNorm-23                                          [[1, 64, 256, 256]]                                                                              [1, 64, 256, 256]                                              256      
    ConvBNReLU-17                                            [[1, 64, 256, 256]]                                                                              [1, 64, 256, 256]                                               0       
      Conv2D-24                                              [[1, 64, 256, 256]]                                                                              [1, 64, 256, 256]                                            36,864     
   SyncBatchNorm-24                                          [[1, 64, 256, 256]]                                                                              [1, 64, 256, 256]                                              256      
       ConvBN-7                                              [[1, 64, 256, 256]]                                                                              [1, 64, 256, 256]                                               0       
     BasicBlock-2                                            [[1, 64, 256, 256]]                                                                              [1, 64, 256, 256]                                               0       
      Conv2D-25                                              [[1, 64, 256, 256]]                                                                              [1, 64, 256, 256]                                            36,864     
   SyncBatchNorm-25                                          [[1, 64, 256, 256]]                                                                              [1, 64, 256, 256]                                              256      
    ConvBNReLU-18                                            [[1, 64, 256, 256]]                                                                              [1, 64, 256, 256]                                               0       
      Conv2D-26                                              [[1, 64, 256, 256]]                                                                              [1, 64, 256, 256]                                            36,864     
   SyncBatchNorm-26                                          [[1, 64, 256, 256]]                                                                              [1, 64, 256, 256]                                              256      
       ConvBN-8                                              [[1, 64, 256, 256]]                                                                              [1, 64, 256, 256]                                               0       
     BasicBlock-3                                            [[1, 64, 256, 256]]                                                                              [1, 64, 256, 256]                                               0       
      Conv2D-27                                              [[1, 64, 256, 256]]                                                                              [1, 64, 256, 256]                                            36,864     
   SyncBatchNorm-27                                          [[1, 64, 256, 256]]                                                                              [1, 64, 256, 256]                                              256      
    ConvBNReLU-19                                            [[1, 64, 256, 256]]                                                                              [1, 64, 256, 256]                                               0       
      Conv2D-28                                              [[1, 64, 256, 256]]                                                                              [1, 64, 256, 256]                                            36,864     
   SyncBatchNorm-28                                          [[1, 64, 256, 256]]                                                                              [1, 64, 256, 256]                                              256      
       ConvBN-9                                              [[1, 64, 256, 256]]                                                                              [1, 64, 256, 256]                                               0       
     BasicBlock-4                                            [[1, 64, 256, 256]]                                                                              [1, 64, 256, 256]                                               0       
      Conv2D-29                                             [[1, 128, 128, 128]]                                                                             [1, 128, 128, 128]                                            147,456    
   SyncBatchNorm-29                                         [[1, 128, 128, 128]]                                                                             [1, 128, 128, 128]                                              512      
    ConvBNReLU-20                                           [[1, 128, 128, 128]]                                                                             [1, 128, 128, 128]                                               0       
      Conv2D-30                                             [[1, 128, 128, 128]]                                                                             [1, 128, 128, 128]                                            147,456    
   SyncBatchNorm-30                                         [[1, 128, 128, 128]]                                                                             [1, 128, 128, 128]                                              512      
      ConvBN-10                                             [[1, 128, 128, 128]]                                                                             [1, 128, 128, 128]                                               0       
     BasicBlock-5                                           [[1, 128, 128, 128]]                                                                             [1, 128, 128, 128]                                               0       
      Conv2D-31                                             [[1, 128, 128, 128]]                                                                             [1, 128, 128, 128]                                            147,456    
   SyncBatchNorm-31                                         [[1, 128, 128, 128]]                                                                             [1, 128, 128, 128]                                              512      
    ConvBNReLU-21                                           [[1, 128, 128, 128]]                                                                             [1, 128, 128, 128]                                               0       
      Conv2D-32                                             [[1, 128, 128, 128]]                                                                             [1, 128, 128, 128]                                            147,456    
   SyncBatchNorm-32                                         [[1, 128, 128, 128]]                                                                             [1, 128, 128, 128]                                              512      
      ConvBN-11                                             [[1, 128, 128, 128]]                                                                             [1, 128, 128, 128]                                               0       
     BasicBlock-6                                           [[1, 128, 128, 128]]                                                                             [1, 128, 128, 128]                                               0       
      Conv2D-33                                             [[1, 128, 128, 128]]                                                                             [1, 128, 128, 128]                                            147,456    
   SyncBatchNorm-33                                         [[1, 128, 128, 128]]                                                                             [1, 128, 128, 128]                                              512      
    ConvBNReLU-22                                           [[1, 128, 128, 128]]                                                                             [1, 128, 128, 128]                                               0       
      Conv2D-34                                             [[1, 128, 128, 128]]                                                                             [1, 128, 128, 128]                                            147,456    
   SyncBatchNorm-34                                         [[1, 128, 128, 128]]                                                                             [1, 128, 128, 128]                                              512      
      ConvBN-12                                             [[1, 128, 128, 128]]                                                                             [1, 128, 128, 128]                                               0       
     BasicBlock-7                                           [[1, 128, 128, 128]]                                                                             [1, 128, 128, 128]                                               0       
      Conv2D-35                                             [[1, 128, 128, 128]]                                                                             [1, 128, 128, 128]                                            147,456    
   SyncBatchNorm-35                                         [[1, 128, 128, 128]]                                                                             [1, 128, 128, 128]                                              512      
    ConvBNReLU-23                                           [[1, 128, 128, 128]]                                                                             [1, 128, 128, 128]                                               0       
      Conv2D-36                                             [[1, 128, 128, 128]]                                                                             [1, 128, 128, 128]                                            147,456    
   SyncBatchNorm-36                                         [[1, 128, 128, 128]]                                                                             [1, 128, 128, 128]                                              512      
      ConvBN-13                                             [[1, 128, 128, 128]]                                                                             [1, 128, 128, 128]                                               0       
     BasicBlock-8                                           [[1, 128, 128, 128]]                                                                             [1, 128, 128, 128]                                               0       
      Branches-1                                  [[[1, 64, 256, 256], [1, 128, 128, 128]]]                                                        [[1, 64, 256, 256], [1, 128, 128, 128]]                                    0       
      Conv2D-37                                             [[1, 128, 128, 128]]                                                                              [1, 64, 128, 128]                                             8,192     
   SyncBatchNorm-37                                          [[1, 64, 128, 128]]                                                                              [1, 64, 128, 128]                                              256      
      ConvBN-14                                             [[1, 128, 128, 128]]                                                                              [1, 64, 128, 128]                                               0       
      Conv2D-38                                              [[1, 64, 256, 256]]                                                                             [1, 128, 128, 128]                                            73,728     
   SyncBatchNorm-38                                         [[1, 128, 128, 128]]                                                                             [1, 128, 128, 128]                                              512      
      ConvBN-15                                              [[1, 64, 256, 256]]                                                                             [1, 128, 128, 128]                                               0       
     FuseLayers-1                                 [[[1, 64, 256, 256], [1, 128, 128, 128]]]                                                        [[1, 64, 256, 256], [1, 128, 128, 128]]                                    0       
HighResolutionModule-1                            [[[1, 64, 256, 256], [1, 128, 128, 128]]]                                                        [[1, 64, 256, 256], [1, 128, 128, 128]]                                    0       
       Stage-1                                    [[[1, 64, 256, 256], [1, 128, 128, 128]]]                                                        [[1, 64, 256, 256], [1, 128, 128, 128]]                                    0       
      Conv2D-39                                             [[1, 128, 128, 128]]                                                                              [1, 256, 64, 64]                                             294,912    
   SyncBatchNorm-39                                          [[1, 256, 64, 64]]                                                                               [1, 256, 64, 64]                                              1,024     
    ConvBNReLU-24                                           [[1, 128, 128, 128]]                                                                              [1, 256, 64, 64]                                                0       
  TransitionLayer-2                               [[[1, 64, 256, 256], [1, 128, 128, 128]]]                                               [[1, 64, 256, 256], [1, 128, 128, 128], [1, 256, 64, 64]]                           0       
      Conv2D-40                                              [[1, 64, 256, 256]]                                                                              [1, 64, 256, 256]                                            36,864     
   SyncBatchNorm-40                                          [[1, 64, 256, 256]]                                                                              [1, 64, 256, 256]                                              256      
    ConvBNReLU-25                                            [[1, 64, 256, 256]]                                                                              [1, 64, 256, 256]                                               0       
      Conv2D-41                                              [[1, 64, 256, 256]]                                                                              [1, 64, 256, 256]                                            36,864     
   SyncBatchNorm-41                                          [[1, 64, 256, 256]]                                                                              [1, 64, 256, 256]                                              256      
      ConvBN-16                                              [[1, 64, 256, 256]]                                                                              [1, 64, 256, 256]                                               0       
     BasicBlock-9                                            [[1, 64, 256, 256]]                                                                              [1, 64, 256, 256]                                               0       
      Conv2D-42                                              [[1, 64, 256, 256]]                                                                              [1, 64, 256, 256]                                            36,864     
   SyncBatchNorm-42                                          [[1, 64, 256, 256]]                                                                              [1, 64, 256, 256]                                              256      
    ConvBNReLU-26                                            [[1, 64, 256, 256]]                                                                              [1, 64, 256, 256]                                               0       
      Conv2D-43                                              [[1, 64, 256, 256]]                                                                              [1, 64, 256, 256]                                            36,864     
   SyncBatchNorm-43                                          [[1, 64, 256, 256]]                                                                              [1, 64, 256, 256]                                              256      
      ConvBN-17                                              [[1, 64, 256, 256]]                                                                              [1, 64, 256, 256]                                               0       
    BasicBlock-10                                            [[1, 64, 256, 256]]                                                                              [1, 64, 256, 256]                                               0       
      Conv2D-44                                              [[1, 64, 256, 256]]                                                                              [1, 64, 256, 256]                                            36,864     
   SyncBatchNorm-44                                          [[1, 64, 256, 256]]                                                                              [1, 64, 256, 256]                                              256      
    ConvBNReLU-27                                            [[1, 64, 256, 256]]                                                                              [1, 64, 256, 256]                                               0       
      Conv2D-45                                              [[1, 64, 256, 256]]                                                                              [1, 64, 256, 256]                                            36,864     
   SyncBatchNorm-45                                          [[1, 64, 256, 256]]                                                                              [1, 64, 256, 256]                                              256      
      ConvBN-18                                              [[1, 64, 256, 256]]                                                                              [1, 64, 256, 256]                                               0       
    BasicBlock-11                                            [[1, 64, 256, 256]]                                                                              [1, 64, 256, 256]                                               0       
      Conv2D-46                                              [[1, 64, 256, 256]]                                                                              [1, 64, 256, 256]                                            36,864     
   SyncBatchNorm-46                                          [[1, 64, 256, 256]]                                                                              [1, 64, 256, 256]                                              256      
    ConvBNReLU-28                                            [[1, 64, 256, 256]]                                                                              [1, 64, 256, 256]                                               0       
      Conv2D-47                                              [[1, 64, 256, 256]]                                                                              [1, 64, 256, 256]                                            36,864     
   SyncBatchNorm-47                                          [[1, 64, 256, 256]]                                                                              [1, 64, 256, 256]                                              256      
      ConvBN-19                                              [[1, 64, 256, 256]]                                                                              [1, 64, 256, 256]                                               0       
    BasicBlock-12                                            [[1, 64, 256, 256]]                                                                              [1, 64, 256, 256]                                               0       
      Conv2D-48                                             [[1, 128, 128, 128]]                                                                             [1, 128, 128, 128]                                            147,456    
   SyncBatchNorm-48                                         [[1, 128, 128, 128]]                                                                             [1, 128, 128, 128]                                              512      
    ConvBNReLU-29                                           [[1, 128, 128, 128]]                                                                             [1, 128, 128, 128]                                               0       
      Conv2D-49                                             [[1, 128, 128, 128]]                                                                             [1, 128, 128, 128]                                            147,456    
   SyncBatchNorm-49                                         [[1, 128, 128, 128]]                                                                             [1, 128, 128, 128]                                              512      
      ConvBN-20                                             [[1, 128, 128, 128]]                                                                             [1, 128, 128, 128]                                               0       
    BasicBlock-13                                           [[1, 128, 128, 128]]                                                                             [1, 128, 128, 128]                                               0       
      Conv2D-50                                             [[1, 128, 128, 128]]                                                                             [1, 128, 128, 128]                                            147,456    
   SyncBatchNorm-50                                         [[1, 128, 128, 128]]                                                                             [1, 128, 128, 128]                                              512      
    ConvBNReLU-30                                           [[1, 128, 128, 128]]                                                                             [1, 128, 128, 128]                                               0       
      Conv2D-51                                             [[1, 128, 128, 128]]                                                                             [1, 128, 128, 128]                                            147,456    
   SyncBatchNorm-51                                         [[1, 128, 128, 128]]                                                                             [1, 128, 128, 128]                                              512      
      ConvBN-21                                             [[1, 128, 128, 128]]                                                                             [1, 128, 128, 128]                                               0       
    BasicBlock-14                                           [[1, 128, 128, 128]]                                                                             [1, 128, 128, 128]                                               0       
      Conv2D-52                                             [[1, 128, 128, 128]]                                                                             [1, 128, 128, 128]                                            147,456    
   SyncBatchNorm-52                                         [[1, 128, 128, 128]]                                                                             [1, 128, 128, 128]                                              512      
    ConvBNReLU-31                                           [[1, 128, 128, 128]]                                                                             [1, 128, 128, 128]                                               0       
      Conv2D-53                                             [[1, 128, 128, 128]]                                                                             [1, 128, 128, 128]                                            147,456    
   SyncBatchNorm-53                                         [[1, 128, 128, 128]]                                                                             [1, 128, 128, 128]                                              512      
      ConvBN-22                                             [[1, 128, 128, 128]]                                                                             [1, 128, 128, 128]                                               0       
    BasicBlock-15                                           [[1, 128, 128, 128]]                                                                             [1, 128, 128, 128]                                               0       
      Conv2D-54                                             [[1, 128, 128, 128]]                                                                             [1, 128, 128, 128]                                            147,456    
   SyncBatchNorm-54                                         [[1, 128, 128, 128]]                                                                             [1, 128, 128, 128]                                              512      
    ConvBNReLU-32                                           [[1, 128, 128, 128]]                                                                             [1, 128, 128, 128]                                               0       
      Conv2D-55                                             [[1, 128, 128, 128]]                                                                             [1, 128, 128, 128]                                            147,456    
   SyncBatchNorm-55                                         [[1, 128, 128, 128]]                                                                             [1, 128, 128, 128]                                              512      
      ConvBN-23                                             [[1, 128, 128, 128]]                                                                             [1, 128, 128, 128]                                               0       
    BasicBlock-16                                           [[1, 128, 128, 128]]                                                                             [1, 128, 128, 128]                                               0       
      Conv2D-56                                              [[1, 256, 64, 64]]                                                                               [1, 256, 64, 64]                                             589,824    
   SyncBatchNorm-56                                          [[1, 256, 64, 64]]                                                                               [1, 256, 64, 64]                                              1,024     
    ConvBNReLU-33                                            [[1, 256, 64, 64]]                                                                               [1, 256, 64, 64]                                                0       
      Conv2D-57                                              [[1, 256, 64, 64]]                                                                               [1, 256, 64, 64]                                             589,824    
   SyncBatchNorm-57                                          [[1, 256, 64, 64]]                                                                               [1, 256, 64, 64]                                              1,024     
      ConvBN-24                                              [[1, 256, 64, 64]]                                                                               [1, 256, 64, 64]                                                0       
    BasicBlock-17                                            [[1, 256, 64, 64]]                                                                               [1, 256, 64, 64]                                                0       
      Conv2D-58                                              [[1, 256, 64, 64]]                                                                               [1, 256, 64, 64]                                             589,824    
   SyncBatchNorm-58                                          [[1, 256, 64, 64]]                                                                               [1, 256, 64, 64]                                              1,024     
    ConvBNReLU-34                                            [[1, 256, 64, 64]]                                                                               [1, 256, 64, 64]                                                0       
      Conv2D-59                                              [[1, 256, 64, 64]]                                                                               [1, 256, 64, 64]                                             589,824    
   SyncBatchNorm-59                                          [[1, 256, 64, 64]]                                                                               [1, 256, 64, 64]                                              1,024     
      ConvBN-25                                              [[1, 256, 64, 64]]                                                                               [1, 256, 64, 64]                                                0       
    BasicBlock-18                                            [[1, 256, 64, 64]]                                                                               [1, 256, 64, 64]                                                0       
      Conv2D-60                                              [[1, 256, 64, 64]]                                                                               [1, 256, 64, 64]                                             589,824    
   SyncBatchNorm-60                                          [[1, 256, 64, 64]]                                                                               [1, 256, 64, 64]                                              1,024     
    ConvBNReLU-35                                            [[1, 256, 64, 64]]                                                                               [1, 256, 64, 64]                                                0       
      Conv2D-61                                              [[1, 256, 64, 64]]                                                                               [1, 256, 64, 64]                                             589,824    
   SyncBatchNorm-61                                          [[1, 256, 64, 64]]                                                                               [1, 256, 64, 64]                                              1,024     
      ConvBN-26                                              [[1, 256, 64, 64]]                                                                               [1, 256, 64, 64]                                                0       
    BasicBlock-19                                            [[1, 256, 64, 64]]                                                                               [1, 256, 64, 64]                                                0       
      Conv2D-62                                              [[1, 256, 64, 64]]                                                                               [1, 256, 64, 64]                                             589,824    
   SyncBatchNorm-62                                          [[1, 256, 64, 64]]                                                                               [1, 256, 64, 64]                                              1,024     
    ConvBNReLU-36                                            [[1, 256, 64, 64]]                                                                               [1, 256, 64, 64]                                                0       
      Conv2D-63                                              [[1, 256, 64, 64]]                                                                               [1, 256, 64, 64]                                             589,824    
   SyncBatchNorm-63                                          [[1, 256, 64, 64]]                                                                               [1, 256, 64, 64]                                              1,024     
      ConvBN-27                                              [[1, 256, 64, 64]]                                                                               [1, 256, 64, 64]                                                0       
    BasicBlock-20                                            [[1, 256, 64, 64]]                                                                               [1, 256, 64, 64]                                                0       
      Branches-2                         [[[1, 64, 256, 256], [1, 128, 128, 128], [1, 256, 64, 64]]]                                      [[1, 64, 256, 256], [1, 128, 128, 128], [1, 256, 64, 64]]                           0       
      Conv2D-64                                             [[1, 128, 128, 128]]                                                                              [1, 64, 128, 128]                                             8,192     
   SyncBatchNorm-64                                          [[1, 64, 128, 128]]                                                                              [1, 64, 128, 128]                                              256      
      ConvBN-28                                             [[1, 128, 128, 128]]                                                                              [1, 64, 128, 128]                                               0       
      Conv2D-65                                              [[1, 256, 64, 64]]                                                                                [1, 64, 64, 64]                                             16,384     
   SyncBatchNorm-65                                           [[1, 64, 64, 64]]                                                                                [1, 64, 64, 64]                                               256      
      ConvBN-29                                              [[1, 256, 64, 64]]                                                                                [1, 64, 64, 64]                                                0       
      Conv2D-66                                              [[1, 64, 256, 256]]                                                                             [1, 128, 128, 128]                                            73,728     
   SyncBatchNorm-66                                         [[1, 128, 128, 128]]                                                                             [1, 128, 128, 128]                                              512      
      ConvBN-30                                              [[1, 64, 256, 256]]                                                                             [1, 128, 128, 128]                                               0       
      Conv2D-67                                              [[1, 256, 64, 64]]                                                                               [1, 128, 64, 64]                                             32,768     
   SyncBatchNorm-67                                          [[1, 128, 64, 64]]                                                                               [1, 128, 64, 64]                                               512      
      ConvBN-31                                              [[1, 256, 64, 64]]                                                                               [1, 128, 64, 64]                                                0       
      Conv2D-68                                              [[1, 64, 256, 256]]                                                                              [1, 64, 128, 128]                                            36,864     
   SyncBatchNorm-68                                          [[1, 64, 128, 128]]                                                                              [1, 64, 128, 128]                                              256      
    ConvBNReLU-37                                            [[1, 64, 256, 256]]                                                                              [1, 64, 128, 128]                                               0       
      Conv2D-69                                              [[1, 64, 128, 128]]                                                                              [1, 256, 64, 64]                                             147,456    
   SyncBatchNorm-69                                          [[1, 256, 64, 64]]                                                                               [1, 256, 64, 64]                                              1,024     
      ConvBN-32                                              [[1, 64, 128, 128]]                                                                              [1, 256, 64, 64]                                                0       
      Conv2D-70                                             [[1, 128, 128, 128]]                                                                              [1, 256, 64, 64]                                             294,912    
   SyncBatchNorm-70                                          [[1, 256, 64, 64]]                                                                               [1, 256, 64, 64]                                              1,024     
      ConvBN-33                                             [[1, 128, 128, 128]]                                                                              [1, 256, 64, 64]                                                0       
     FuseLayers-2                        [[[1, 64, 256, 256], [1, 128, 128, 128], [1, 256, 64, 64]]]                                      [[1, 64, 256, 256], [1, 128, 128, 128], [1, 256, 64, 64]]                           0       
HighResolutionModule-2                   [[[1, 64, 256, 256], [1, 128, 128, 128], [1, 256, 64, 64]]]                                      [[1, 64, 256, 256], [1, 128, 128, 128], [1, 256, 64, 64]]                           0       
      Conv2D-71                                              [[1, 64, 256, 256]]                                                                              [1, 64, 256, 256]                                            36,864     
   SyncBatchNorm-71                                          [[1, 64, 256, 256]]                                                                              [1, 64, 256, 256]                                              256      
    ConvBNReLU-38                                            [[1, 64, 256, 256]]                                                                              [1, 64, 256, 256]                                               0       
      Conv2D-72                                              [[1, 64, 256, 256]]                                                                              [1, 64, 256, 256]                                            36,864     
   SyncBatchNorm-72                                          [[1, 64, 256, 256]]                                                                              [1, 64, 256, 256]                                              256      
      ConvBN-34                                              [[1, 64, 256, 256]]                                                                              [1, 64, 256, 256]                                               0       
    BasicBlock-21                                            [[1, 64, 256, 256]]                                                                              [1, 64, 256, 256]                                               0       
      Conv2D-73                                              [[1, 64, 256, 256]]                                                                              [1, 64, 256, 256]                                            36,864     
   SyncBatchNorm-73                                          [[1, 64, 256, 256]]                                                                              [1, 64, 256, 256]                                              256      
    ConvBNReLU-39                                            [[1, 64, 256, 256]]                                                                              [1, 64, 256, 256]                                               0       
      Conv2D-74                                              [[1, 64, 256, 256]]                                                                              [1, 64, 256, 256]                                            36,864     
   SyncBatchNorm-74                                          [[1, 64, 256, 256]]                                                                              [1, 64, 256, 256]                                              256      
      ConvBN-35                                              [[1, 64, 256, 256]]                                                                              [1, 64, 256, 256]                                               0       
    BasicBlock-22                                            [[1, 64, 256, 256]]                                                                              [1, 64, 256, 256]                                               0       
      Conv2D-75                                              [[1, 64, 256, 256]]                                                                              [1, 64, 256, 256]                                            36,864     
   SyncBatchNorm-75                                          [[1, 64, 256, 256]]                                                                              [1, 64, 256, 256]                                              256      
    ConvBNReLU-40                                            [[1, 64, 256, 256]]                                                                              [1, 64, 256, 256]                                               0       
      Conv2D-76                                              [[1, 64, 256, 256]]                                                                              [1, 64, 256, 256]                                            36,864     
   SyncBatchNorm-76                                          [[1, 64, 256, 256]]                                                                              [1, 64, 256, 256]                                              256      
      ConvBN-36                                              [[1, 64, 256, 256]]                                                                              [1, 64, 256, 256]                                               0       
    BasicBlock-23                                            [[1, 64, 256, 256]]                                                                              [1, 64, 256, 256]                                               0       
      Conv2D-77                                              [[1, 64, 256, 256]]                                                                              [1, 64, 256, 256]                                            36,864     
   SyncBatchNorm-77                                          [[1, 64, 256, 256]]                                                                              [1, 64, 256, 256]                                              256      
    ConvBNReLU-41                                            [[1, 64, 256, 256]]                                                                              [1, 64, 256, 256]                                               0       
      Conv2D-78                                              [[1, 64, 256, 256]]                                                                              [1, 64, 256, 256]                                            36,864     
   SyncBatchNorm-78                                          [[1, 64, 256, 256]]                                                                              [1, 64, 256, 256]                                              256      
      ConvBN-37                                              [[1, 64, 256, 256]]                                                                              [1, 64, 256, 256]                                               0       
    BasicBlock-24                                            [[1, 64, 256, 256]]                                                                              [1, 64, 256, 256]                                               0       
      Conv2D-79                                             [[1, 128, 128, 128]]                                                                             [1, 128, 128, 128]                                            147,456    
   SyncBatchNorm-79                                         [[1, 128, 128, 128]]                                                                             [1, 128, 128, 128]                                              512      
    ConvBNReLU-42                                           [[1, 128, 128, 128]]                                                                             [1, 128, 128, 128]                                               0       
      Conv2D-80                                             [[1, 128, 128, 128]]                                                                             [1, 128, 128, 128]                                            147,456    
   SyncBatchNorm-80                                         [[1, 128, 128, 128]]                                                                             [1, 128, 128, 128]                                              512      
      ConvBN-38                                             [[1, 128, 128, 128]]                                                                             [1, 128, 128, 128]                                               0       
    BasicBlock-25                                           [[1, 128, 128, 128]]                                                                             [1, 128, 128, 128]                                               0       
      Conv2D-81                                             [[1, 128, 128, 128]]                                                                             [1, 128, 128, 128]                                            147,456    
   SyncBatchNorm-81                                         [[1, 128, 128, 128]]                                                                             [1, 128, 128, 128]                                              512      
    ConvBNReLU-43                                           [[1, 128, 128, 128]]                                                                             [1, 128, 128, 128]                                               0       
      Conv2D-82                                             [[1, 128, 128, 128]]                                                                             [1, 128, 128, 128]                                            147,456    
   SyncBatchNorm-82                                         [[1, 128, 128, 128]]                                                                             [1, 128, 128, 128]                                              512      
      ConvBN-39                                             [[1, 128, 128, 128]]                                                                             [1, 128, 128, 128]                                               0       
    BasicBlock-26                                           [[1, 128, 128, 128]]                                                                             [1, 128, 128, 128]                                               0       
      Conv2D-83                                             [[1, 128, 128, 128]]                                                                             [1, 128, 128, 128]                                            147,456    
   SyncBatchNorm-83                                         [[1, 128, 128, 128]]                                                                             [1, 128, 128, 128]                                              512      
    ConvBNReLU-44                                           [[1, 128, 128, 128]]                                                                             [1, 128, 128, 128]                                               0       
      Conv2D-84                                             [[1, 128, 128, 128]]                                                                             [1, 128, 128, 128]                                            147,456    
   SyncBatchNorm-84                                         [[1, 128, 128, 128]]                                                                             [1, 128, 128, 128]                                              512      
      ConvBN-40                                             [[1, 128, 128, 128]]                                                                             [1, 128, 128, 128]                                               0       
    BasicBlock-27                                           [[1, 128, 128, 128]]                                                                             [1, 128, 128, 128]                                               0       
      Conv2D-85                                             [[1, 128, 128, 128]]                                                                             [1, 128, 128, 128]                                            147,456    
   SyncBatchNorm-85                                         [[1, 128, 128, 128]]                                                                             [1, 128, 128, 128]                                              512      
    ConvBNReLU-45                                           [[1, 128, 128, 128]]                                                                             [1, 128, 128, 128]                                               0       
      Conv2D-86                                             [[1, 128, 128, 128]]                                                                             [1, 128, 128, 128]                                            147,456    
   SyncBatchNorm-86                                         [[1, 128, 128, 128]]                                                                             [1, 128, 128, 128]                                              512      
      ConvBN-41                                             [[1, 128, 128, 128]]                                                                             [1, 128, 128, 128]                                               0       
    BasicBlock-28                                           [[1, 128, 128, 128]]                                                                             [1, 128, 128, 128]                                               0       
      Conv2D-87                                              [[1, 256, 64, 64]]                                                                               [1, 256, 64, 64]                                             589,824    
   SyncBatchNorm-87                                          [[1, 256, 64, 64]]                                                                               [1, 256, 64, 64]                                              1,024     
    ConvBNReLU-46                                            [[1, 256, 64, 64]]                                                                               [1, 256, 64, 64]                                                0       
      Conv2D-88                                              [[1, 256, 64, 64]]                                                                               [1, 256, 64, 64]                                             589,824    
   SyncBatchNorm-88                                          [[1, 256, 64, 64]]                                                                               [1, 256, 64, 64]                                              1,024     
      ConvBN-42                                              [[1, 256, 64, 64]]                                                                               [1, 256, 64, 64]                                                0       
    BasicBlock-29                                            [[1, 256, 64, 64]]                                                                               [1, 256, 64, 64]                                                0       
      Conv2D-89                                              [[1, 256, 64, 64]]                                                                               [1, 256, 64, 64]                                             589,824    
   SyncBatchNorm-89                                          [[1, 256, 64, 64]]                                                                               [1, 256, 64, 64]                                              1,024     
    ConvBNReLU-47                                            [[1, 256, 64, 64]]                                                                               [1, 256, 64, 64]                                                0       
      Conv2D-90                                              [[1, 256, 64, 64]]                                                                               [1, 256, 64, 64]                                             589,824    
   SyncBatchNorm-90                                          [[1, 256, 64, 64]]                                                                               [1, 256, 64, 64]                                              1,024     
      ConvBN-43                                              [[1, 256, 64, 64]]                                                                               [1, 256, 64, 64]                                                0       
    BasicBlock-30                                            [[1, 256, 64, 64]]                                                                               [1, 256, 64, 64]                                                0       
      Conv2D-91                                              [[1, 256, 64, 64]]                                                                               [1, 256, 64, 64]                                             589,824    
   SyncBatchNorm-91                                          [[1, 256, 64, 64]]                                                                               [1, 256, 64, 64]                                              1,024     
    ConvBNReLU-48                                            [[1, 256, 64, 64]]                                                                               [1, 256, 64, 64]                                                0       
      Conv2D-92                                              [[1, 256, 64, 64]]                                                                               [1, 256, 64, 64]                                             589,824    
   SyncBatchNorm-92                                          [[1, 256, 64, 64]]                                                                               [1, 256, 64, 64]                                              1,024     
      ConvBN-44                                              [[1, 256, 64, 64]]                                                                               [1, 256, 64, 64]                                                0       
    BasicBlock-31                                            [[1, 256, 64, 64]]                                                                               [1, 256, 64, 64]                                                0       
      Conv2D-93                                              [[1, 256, 64, 64]]                                                                               [1, 256, 64, 64]                                             589,824    
   SyncBatchNorm-93                                          [[1, 256, 64, 64]]                                                                               [1, 256, 64, 64]                                              1,024     
    ConvBNReLU-49                                            [[1, 256, 64, 64]]                                                                               [1, 256, 64, 64]                                                0       
      Conv2D-94                                              [[1, 256, 64, 64]]                                                                               [1, 256, 64, 64]                                             589,824    
   SyncBatchNorm-94                                          [[1, 256, 64, 64]]                                                                               [1, 256, 64, 64]                                              1,024     
      ConvBN-45                                              [[1, 256, 64, 64]]                                                                               [1, 256, 64, 64]                                                0       
    BasicBlock-32                                            [[1, 256, 64, 64]]                                                                               [1, 256, 64, 64]                                                0       
      Branches-3                         [[[1, 64, 256, 256], [1, 128, 128, 128], [1, 256, 64, 64]]]                                      [[1, 64, 256, 256], [1, 128, 128, 128], [1, 256, 64, 64]]                           0       
      Conv2D-95                                             [[1, 128, 128, 128]]                                                                              [1, 64, 128, 128]                                             8,192     
   SyncBatchNorm-95                                          [[1, 64, 128, 128]]                                                                              [1, 64, 128, 128]                                              256      
      ConvBN-46                                             [[1, 128, 128, 128]]                                                                              [1, 64, 128, 128]                                               0       
      Conv2D-96                                              [[1, 256, 64, 64]]                                                                                [1, 64, 64, 64]                                             16,384     
   SyncBatchNorm-96                                           [[1, 64, 64, 64]]                                                                                [1, 64, 64, 64]                                               256      
      ConvBN-47                                              [[1, 256, 64, 64]]                                                                                [1, 64, 64, 64]                                                0       
      Conv2D-97                                              [[1, 64, 256, 256]]                                                                             [1, 128, 128, 128]                                            73,728     
   SyncBatchNorm-97                                         [[1, 128, 128, 128]]                                                                             [1, 128, 128, 128]                                              512      
      ConvBN-48                                              [[1, 64, 256, 256]]                                                                             [1, 128, 128, 128]                                               0       
      Conv2D-98                                              [[1, 256, 64, 64]]                                                                               [1, 128, 64, 64]                                             32,768     
   SyncBatchNorm-98                                          [[1, 128, 64, 64]]                                                                               [1, 128, 64, 64]                                               512      
      ConvBN-49                                              [[1, 256, 64, 64]]                                                                               [1, 128, 64, 64]                                                0       
      Conv2D-99                                              [[1, 64, 256, 256]]                                                                              [1, 64, 128, 128]                                            36,864     
   SyncBatchNorm-99                                          [[1, 64, 128, 128]]                                                                              [1, 64, 128, 128]                                              256      
    ConvBNReLU-50                                            [[1, 64, 256, 256]]                                                                              [1, 64, 128, 128]                                               0       
      Conv2D-100                                             [[1, 64, 128, 128]]                                                                              [1, 256, 64, 64]                                             147,456    
  SyncBatchNorm-100                                          [[1, 256, 64, 64]]                                                                               [1, 256, 64, 64]                                              1,024     
      ConvBN-50                                              [[1, 64, 128, 128]]                                                                              [1, 256, 64, 64]                                                0       
      Conv2D-101                                            [[1, 128, 128, 128]]                                                                              [1, 256, 64, 64]                                             294,912    
  SyncBatchNorm-101                                          [[1, 256, 64, 64]]                                                                               [1, 256, 64, 64]                                              1,024     
      ConvBN-51                                             [[1, 128, 128, 128]]                                                                              [1, 256, 64, 64]                                                0       
     FuseLayers-3                        [[[1, 64, 256, 256], [1, 128, 128, 128], [1, 256, 64, 64]]]                                      [[1, 64, 256, 256], [1, 128, 128, 128], [1, 256, 64, 64]]                           0       
HighResolutionModule-3                   [[[1, 64, 256, 256], [1, 128, 128, 128], [1, 256, 64, 64]]]                                      [[1, 64, 256, 256], [1, 128, 128, 128], [1, 256, 64, 64]]                           0       
      Conv2D-102                                             [[1, 64, 256, 256]]                                                                              [1, 64, 256, 256]                                            36,864     
  SyncBatchNorm-102                                          [[1, 64, 256, 256]]                                                                              [1, 64, 256, 256]                                              256      
    ConvBNReLU-51                                            [[1, 64, 256, 256]]                                                                              [1, 64, 256, 256]                                               0       
      Conv2D-103                                             [[1, 64, 256, 256]]                                                                              [1, 64, 256, 256]                                            36,864     
  SyncBatchNorm-103                                          [[1, 64, 256, 256]]                                                                              [1, 64, 256, 256]                                              256      
      ConvBN-52                                              [[1, 64, 256, 256]]                                                                              [1, 64, 256, 256]                                               0       
    BasicBlock-33                                            [[1, 64, 256, 256]]                                                                              [1, 64, 256, 256]                                               0       
      Conv2D-104                                             [[1, 64, 256, 256]]                                                                              [1, 64, 256, 256]                                            36,864     
  SyncBatchNorm-104                                          [[1, 64, 256, 256]]                                                                              [1, 64, 256, 256]                                              256      
    ConvBNReLU-52                                            [[1, 64, 256, 256]]                                                                              [1, 64, 256, 256]                                               0       
      Conv2D-105                                             [[1, 64, 256, 256]]                                                                              [1, 64, 256, 256]                                            36,864     
  SyncBatchNorm-105                                          [[1, 64, 256, 256]]                                                                              [1, 64, 256, 256]                                              256      
      ConvBN-53                                              [[1, 64, 256, 256]]                                                                              [1, 64, 256, 256]                                               0       
    BasicBlock-34                                            [[1, 64, 256, 256]]                                                                              [1, 64, 256, 256]                                               0       
      Conv2D-106                                             [[1, 64, 256, 256]]                                                                              [1, 64, 256, 256]                                            36,864     
  SyncBatchNorm-106                                          [[1, 64, 256, 256]]                                                                              [1, 64, 256, 256]                                              256      
    ConvBNReLU-53                                            [[1, 64, 256, 256]]                                                                              [1, 64, 256, 256]                                               0       
      Conv2D-107                                             [[1, 64, 256, 256]]                                                                              [1, 64, 256, 256]                                            36,864     
  SyncBatchNorm-107                                          [[1, 64, 256, 256]]                                                                              [1, 64, 256, 256]                                              256      
      ConvBN-54                                              [[1, 64, 256, 256]]                                                                              [1, 64, 256, 256]                                               0       
    BasicBlock-35                                            [[1, 64, 256, 256]]                                                                              [1, 64, 256, 256]                                               0       
      Conv2D-108                                             [[1, 64, 256, 256]]                                                                              [1, 64, 256, 256]                                            36,864     
  SyncBatchNorm-108                                          [[1, 64, 256, 256]]                                                                              [1, 64, 256, 256]                                              256      
    ConvBNReLU-54                                            [[1, 64, 256, 256]]                                                                              [1, 64, 256, 256]                                               0       
      Conv2D-109                                             [[1, 64, 256, 256]]                                                                              [1, 64, 256, 256]                                            36,864     
  SyncBatchNorm-109                                          [[1, 64, 256, 256]]                                                                              [1, 64, 256, 256]                                              256      
      ConvBN-55                                              [[1, 64, 256, 256]]                                                                              [1, 64, 256, 256]                                               0       
    BasicBlock-36                                            [[1, 64, 256, 256]]                                                                              [1, 64, 256, 256]                                               0       
      Conv2D-110                                            [[1, 128, 128, 128]]                                                                             [1, 128, 128, 128]                                            147,456    
  SyncBatchNorm-110                                         [[1, 128, 128, 128]]                                                                             [1, 128, 128, 128]                                              512      
    ConvBNReLU-55                                           [[1, 128, 128, 128]]                                                                             [1, 128, 128, 128]                                               0       
      Conv2D-111                                            [[1, 128, 128, 128]]                                                                             [1, 128, 128, 128]                                            147,456    
  SyncBatchNorm-111                                         [[1, 128, 128, 128]]                                                                             [1, 128, 128, 128]                                              512      
      ConvBN-56                                             [[1, 128, 128, 128]]                                                                             [1, 128, 128, 128]                                               0       
    BasicBlock-37                                           [[1, 128, 128, 128]]                                                                             [1, 128, 128, 128]                                               0       
      Conv2D-112                                            [[1, 128, 128, 128]]                                                                             [1, 128, 128, 128]                                            147,456    
  SyncBatchNorm-112                                         [[1, 128, 128, 128]]                                                                             [1, 128, 128, 128]                                              512      
    ConvBNReLU-56                                           [[1, 128, 128, 128]]                                                                             [1, 128, 128, 128]                                               0       
      Conv2D-113                                            [[1, 128, 128, 128]]                                                                             [1, 128, 128, 128]                                            147,456    
  SyncBatchNorm-113                                         [[1, 128, 128, 128]]                                                                             [1, 128, 128, 128]                                              512      
      ConvBN-57                                             [[1, 128, 128, 128]]                                                                             [1, 128, 128, 128]                                               0       
    BasicBlock-38                                           [[1, 128, 128, 128]]                                                                             [1, 128, 128, 128]                                               0       
      Conv2D-114                                            [[1, 128, 128, 128]]                                                                             [1, 128, 128, 128]                                            147,456    
  SyncBatchNorm-114                                         [[1, 128, 128, 128]]                                                                             [1, 128, 128, 128]                                              512      
    ConvBNReLU-57                                           [[1, 128, 128, 128]]                                                                             [1, 128, 128, 128]                                               0       
      Conv2D-115                                            [[1, 128, 128, 128]]                                                                             [1, 128, 128, 128]                                            147,456    
  SyncBatchNorm-115                                         [[1, 128, 128, 128]]                                                                             [1, 128, 128, 128]                                              512      
      ConvBN-58                                             [[1, 128, 128, 128]]                                                                             [1, 128, 128, 128]                                               0       
    BasicBlock-39                                           [[1, 128, 128, 128]]                                                                             [1, 128, 128, 128]                                               0       
      Conv2D-116                                            [[1, 128, 128, 128]]                                                                             [1, 128, 128, 128]                                            147,456    
  SyncBatchNorm-116                                         [[1, 128, 128, 128]]                                                                             [1, 128, 128, 128]                                              512      
    ConvBNReLU-58                                           [[1, 128, 128, 128]]                                                                             [1, 128, 128, 128]                                               0       
      Conv2D-117                                            [[1, 128, 128, 128]]                                                                             [1, 128, 128, 128]                                            147,456    
  SyncBatchNorm-117                                         [[1, 128, 128, 128]]                                                                             [1, 128, 128, 128]                                              512      
      ConvBN-59                                             [[1, 128, 128, 128]]                                                                             [1, 128, 128, 128]                                               0       
    BasicBlock-40                                           [[1, 128, 128, 128]]                                                                             [1, 128, 128, 128]                                               0       
      Conv2D-118                                             [[1, 256, 64, 64]]                                                                               [1, 256, 64, 64]                                             589,824    
  SyncBatchNorm-118                                          [[1, 256, 64, 64]]                                                                               [1, 256, 64, 64]                                              1,024     
    ConvBNReLU-59                                            [[1, 256, 64, 64]]                                                                               [1, 256, 64, 64]                                                0       
      Conv2D-119                                             [[1, 256, 64, 64]]                                                                               [1, 256, 64, 64]                                             589,824    
  SyncBatchNorm-119                                          [[1, 256, 64, 64]]                                                                               [1, 256, 64, 64]                                              1,024     
      ConvBN-60                                              [[1, 256, 64, 64]]                                                                               [1, 256, 64, 64]                                                0       
    BasicBlock-41                                            [[1, 256, 64, 64]]                                                                               [1, 256, 64, 64]                                                0       
      Conv2D-120                                             [[1, 256, 64, 64]]                                                                               [1, 256, 64, 64]                                             589,824    
  SyncBatchNorm-120                                          [[1, 256, 64, 64]]                                                                               [1, 256, 64, 64]                                              1,024     
    ConvBNReLU-60                                            [[1, 256, 64, 64]]                                                                               [1, 256, 64, 64]                                                0       
      Conv2D-121                                             [[1, 256, 64, 64]]                                                                               [1, 256, 64, 64]                                             589,824    
  SyncBatchNorm-121                                          [[1, 256, 64, 64]]                                                                               [1, 256, 64, 64]                                              1,024     
      ConvBN-61                                              [[1, 256, 64, 64]]                                                                               [1, 256, 64, 64]                                                0       
    BasicBlock-42                                            [[1, 256, 64, 64]]                                                                               [1, 256, 64, 64]                                                0       
      Conv2D-122                                             [[1, 256, 64, 64]]                                                                               [1, 256, 64, 64]                                             589,824    
  SyncBatchNorm-122                                          [[1, 256, 64, 64]]                                                                               [1, 256, 64, 64]                                              1,024     
    ConvBNReLU-61                                            [[1, 256, 64, 64]]                                                                               [1, 256, 64, 64]                                                0       
      Conv2D-123                                             [[1, 256, 64, 64]]                                                                               [1, 256, 64, 64]                                             589,824    
  SyncBatchNorm-123                                          [[1, 256, 64, 64]]                                                                               [1, 256, 64, 64]                                              1,024     
      ConvBN-62                                              [[1, 256, 64, 64]]                                                                               [1, 256, 64, 64]                                                0       
    BasicBlock-43                                            [[1, 256, 64, 64]]                                                                               [1, 256, 64, 64]                                                0       
      Conv2D-124                                             [[1, 256, 64, 64]]                                                                               [1, 256, 64, 64]                                             589,824    
  SyncBatchNorm-124                                          [[1, 256, 64, 64]]                                                                               [1, 256, 64, 64]                                              1,024     
    ConvBNReLU-62                                            [[1, 256, 64, 64]]                                                                               [1, 256, 64, 64]                                                0       
      Conv2D-125                                             [[1, 256, 64, 64]]                                                                               [1, 256, 64, 64]                                             589,824    
  SyncBatchNorm-125                                          [[1, 256, 64, 64]]                                                                               [1, 256, 64, 64]                                              1,024     
      ConvBN-63                                              [[1, 256, 64, 64]]                                                                               [1, 256, 64, 64]                                                0       
    BasicBlock-44                                            [[1, 256, 64, 64]]                                                                               [1, 256, 64, 64]                                                0       
      Branches-4                         [[[1, 64, 256, 256], [1, 128, 128, 128], [1, 256, 64, 64]]]                                      [[1, 64, 256, 256], [1, 128, 128, 128], [1, 256, 64, 64]]                           0       
      Conv2D-126                                            [[1, 128, 128, 128]]                                                                              [1, 64, 128, 128]                                             8,192     
  SyncBatchNorm-126                                          [[1, 64, 128, 128]]                                                                              [1, 64, 128, 128]                                              256      
      ConvBN-64                                             [[1, 128, 128, 128]]                                                                              [1, 64, 128, 128]                                               0       
      Conv2D-127                                             [[1, 256, 64, 64]]                                                                                [1, 64, 64, 64]                                             16,384     
  SyncBatchNorm-127                                           [[1, 64, 64, 64]]                                                                                [1, 64, 64, 64]                                               256      
      ConvBN-65                                              [[1, 256, 64, 64]]                                                                                [1, 64, 64, 64]                                                0       
      Conv2D-128                                             [[1, 64, 256, 256]]                                                                             [1, 128, 128, 128]                                            73,728     
  SyncBatchNorm-128                                         [[1, 128, 128, 128]]                                                                             [1, 128, 128, 128]                                              512      
      ConvBN-66                                              [[1, 64, 256, 256]]                                                                             [1, 128, 128, 128]                                               0       
      Conv2D-129                                             [[1, 256, 64, 64]]                                                                               [1, 128, 64, 64]                                             32,768     
  SyncBatchNorm-129                                          [[1, 128, 64, 64]]                                                                               [1, 128, 64, 64]                                               512      
      ConvBN-67                                              [[1, 256, 64, 64]]                                                                               [1, 128, 64, 64]                                                0       
      Conv2D-130                                             [[1, 64, 256, 256]]                                                                              [1, 64, 128, 128]                                            36,864     
  SyncBatchNorm-130                                          [[1, 64, 128, 128]]                                                                              [1, 64, 128, 128]                                              256      
    ConvBNReLU-63                                            [[1, 64, 256, 256]]                                                                              [1, 64, 128, 128]                                               0       
      Conv2D-131                                             [[1, 64, 128, 128]]                                                                              [1, 256, 64, 64]                                             147,456    
  SyncBatchNorm-131                                          [[1, 256, 64, 64]]                                                                               [1, 256, 64, 64]                                              1,024     
      ConvBN-68                                              [[1, 64, 128, 128]]                                                                              [1, 256, 64, 64]                                                0       
      Conv2D-132                                            [[1, 128, 128, 128]]                                                                              [1, 256, 64, 64]                                             294,912    
  SyncBatchNorm-132                                          [[1, 256, 64, 64]]                                                                               [1, 256, 64, 64]                                              1,024     
      ConvBN-69                                             [[1, 128, 128, 128]]                                                                              [1, 256, 64, 64]                                                0       
     FuseLayers-4                        [[[1, 64, 256, 256], [1, 128, 128, 128], [1, 256, 64, 64]]]                                      [[1, 64, 256, 256], [1, 128, 128, 128], [1, 256, 64, 64]]                           0       
HighResolutionModule-4                   [[[1, 64, 256, 256], [1, 128, 128, 128], [1, 256, 64, 64]]]                                      [[1, 64, 256, 256], [1, 128, 128, 128], [1, 256, 64, 64]]                           0       
      Conv2D-133                                             [[1, 64, 256, 256]]                                                                              [1, 64, 256, 256]                                            36,864     
  SyncBatchNorm-133                                          [[1, 64, 256, 256]]                                                                              [1, 64, 256, 256]                                              256      
    ConvBNReLU-64                                            [[1, 64, 256, 256]]                                                                              [1, 64, 256, 256]                                               0       
      Conv2D-134                                             [[1, 64, 256, 256]]                                                                              [1, 64, 256, 256]                                            36,864     
  SyncBatchNorm-134                                          [[1, 64, 256, 256]]                                                                              [1, 64, 256, 256]                                              256      
      ConvBN-70                                              [[1, 64, 256, 256]]                                                                              [1, 64, 256, 256]                                               0       
    BasicBlock-45                                            [[1, 64, 256, 256]]                                                                              [1, 64, 256, 256]                                               0       
      Conv2D-135                                             [[1, 64, 256, 256]]                                                                              [1, 64, 256, 256]                                            36,864     
  SyncBatchNorm-135                                          [[1, 64, 256, 256]]                                                                              [1, 64, 256, 256]                                              256      
    ConvBNReLU-65                                            [[1, 64, 256, 256]]                                                                              [1, 64, 256, 256]                                               0       
      Conv2D-136                                             [[1, 64, 256, 256]]                                                                              [1, 64, 256, 256]                                            36,864     
  SyncBatchNorm-136                                          [[1, 64, 256, 256]]                                                                              [1, 64, 256, 256]                                              256      
      ConvBN-71                                              [[1, 64, 256, 256]]                                                                              [1, 64, 256, 256]                                               0       
    BasicBlock-46                                            [[1, 64, 256, 256]]                                                                              [1, 64, 256, 256]                                               0       
      Conv2D-137                                             [[1, 64, 256, 256]]                                                                              [1, 64, 256, 256]                                            36,864     
  SyncBatchNorm-137                                          [[1, 64, 256, 256]]                                                                              [1, 64, 256, 256]                                              256      
    ConvBNReLU-66                                            [[1, 64, 256, 256]]                                                                              [1, 64, 256, 256]                                               0       
      Conv2D-138                                             [[1, 64, 256, 256]]                                                                              [1, 64, 256, 256]                                            36,864     
  SyncBatchNorm-138                                          [[1, 64, 256, 256]]                                                                              [1, 64, 256, 256]                                              256      
      ConvBN-72                                              [[1, 64, 256, 256]]                                                                              [1, 64, 256, 256]                                               0       
    BasicBlock-47                                            [[1, 64, 256, 256]]                                                                              [1, 64, 256, 256]                                               0       
      Conv2D-139                                             [[1, 64, 256, 256]]                                                                              [1, 64, 256, 256]                                            36,864     
  SyncBatchNorm-139                                          [[1, 64, 256, 256]]                                                                              [1, 64, 256, 256]                                              256      
    ConvBNReLU-67                                            [[1, 64, 256, 256]]                                                                              [1, 64, 256, 256]                                               0       
      Conv2D-140                                             [[1, 64, 256, 256]]                                                                              [1, 64, 256, 256]                                            36,864     
  SyncBatchNorm-140                                          [[1, 64, 256, 256]]                                                                              [1, 64, 256, 256]                                              256      
      ConvBN-73                                              [[1, 64, 256, 256]]                                                                              [1, 64, 256, 256]                                               0       
    BasicBlock-48                                            [[1, 64, 256, 256]]                                                                              [1, 64, 256, 256]                                               0       
      Conv2D-141                                            [[1, 128, 128, 128]]                                                                             [1, 128, 128, 128]                                            147,456    
  SyncBatchNorm-141                                         [[1, 128, 128, 128]]                                                                             [1, 128, 128, 128]                                              512      
    ConvBNReLU-68                                           [[1, 128, 128, 128]]                                                                             [1, 128, 128, 128]                                               0       
      Conv2D-142                                            [[1, 128, 128, 128]]                                                                             [1, 128, 128, 128]                                            147,456    
  SyncBatchNorm-142                                         [[1, 128, 128, 128]]                                                                             [1, 128, 128, 128]                                              512      
      ConvBN-74                                             [[1, 128, 128, 128]]                                                                             [1, 128, 128, 128]                                               0       
    BasicBlock-49                                           [[1, 128, 128, 128]]                                                                             [1, 128, 128, 128]                                               0       
      Conv2D-143                                            [[1, 128, 128, 128]]                                                                             [1, 128, 128, 128]                                            147,456    
  SyncBatchNorm-143                                         [[1, 128, 128, 128]]                                                                             [1, 128, 128, 128]                                              512      
    ConvBNReLU-69                                           [[1, 128, 128, 128]]                                                                             [1, 128, 128, 128]                                               0       
      Conv2D-144                                            [[1, 128, 128, 128]]                                                                             [1, 128, 128, 128]                                            147,456    
  SyncBatchNorm-144                                         [[1, 128, 128, 128]]                                                                             [1, 128, 128, 128]                                              512      
      ConvBN-75                                             [[1, 128, 128, 128]]                                                                             [1, 128, 128, 128]                                               0       
    BasicBlock-50                                           [[1, 128, 128, 128]]                                                                             [1, 128, 128, 128]                                               0       
      Conv2D-145                                            [[1, 128, 128, 128]]                                                                             [1, 128, 128, 128]                                            147,456    
  SyncBatchNorm-145                                         [[1, 128, 128, 128]]                                                                             [1, 128, 128, 128]                                              512      
    ConvBNReLU-70                                           [[1, 128, 128, 128]]                                                                             [1, 128, 128, 128]                                               0       
      Conv2D-146                                            [[1, 128, 128, 128]]                                                                             [1, 128, 128, 128]                                            147,456    
  SyncBatchNorm-146                                         [[1, 128, 128, 128]]                                                                             [1, 128, 128, 128]                                              512      
      ConvBN-76                                             [[1, 128, 128, 128]]                                                                             [1, 128, 128, 128]                                               0       
    BasicBlock-51                                           [[1, 128, 128, 128]]                                                                             [1, 128, 128, 128]                                               0       
      Conv2D-147                                            [[1, 128, 128, 128]]                                                                             [1, 128, 128, 128]                                            147,456    
  SyncBatchNorm-147                                         [[1, 128, 128, 128]]                                                                             [1, 128, 128, 128]                                              512      
    ConvBNReLU-71                                           [[1, 128, 128, 128]]                                                                             [1, 128, 128, 128]                                               0       
      Conv2D-148                                            [[1, 128, 128, 128]]                                                                             [1, 128, 128, 128]                                            147,456    
  SyncBatchNorm-148                                         [[1, 128, 128, 128]]                                                                             [1, 128, 128, 128]                                              512      
      ConvBN-77                                             [[1, 128, 128, 128]]                                                                             [1, 128, 128, 128]                                               0       
    BasicBlock-52                                           [[1, 128, 128, 128]]                                                                             [1, 128, 128, 128]                                               0       
      Conv2D-149                                             [[1, 256, 64, 64]]                                                                               [1, 256, 64, 64]                                             589,824    
  SyncBatchNorm-149                                          [[1, 256, 64, 64]]                                                                               [1, 256, 64, 64]                                              1,024     
    ConvBNReLU-72                                            [[1, 256, 64, 64]]                                                                               [1, 256, 64, 64]                                                0       
      Conv2D-150                                             [[1, 256, 64, 64]]                                                                               [1, 256, 64, 64]                                             589,824    
  SyncBatchNorm-150                                          [[1, 256, 64, 64]]                                                                               [1, 256, 64, 64]                                              1,024     
      ConvBN-78                                              [[1, 256, 64, 64]]                                                                               [1, 256, 64, 64]                                                0       
    BasicBlock-53                                            [[1, 256, 64, 64]]                                                                               [1, 256, 64, 64]                                                0       
      Conv2D-151                                             [[1, 256, 64, 64]]                                                                               [1, 256, 64, 64]                                             589,824    
  SyncBatchNorm-151                                          [[1, 256, 64, 64]]                                                                               [1, 256, 64, 64]                                              1,024     
    ConvBNReLU-73                                            [[1, 256, 64, 64]]                                                                               [1, 256, 64, 64]                                                0       
      Conv2D-152                                             [[1, 256, 64, 64]]                                                                               [1, 256, 64, 64]                                             589,824    
  SyncBatchNorm-152                                          [[1, 256, 64, 64]]                                                                               [1, 256, 64, 64]                                              1,024     
      ConvBN-79                                              [[1, 256, 64, 64]]                                                                               [1, 256, 64, 64]                                                0       
    BasicBlock-54                                            [[1, 256, 64, 64]]                                                                               [1, 256, 64, 64]                                                0       
      Conv2D-153                                             [[1, 256, 64, 64]]                                                                               [1, 256, 64, 64]                                             589,824    
  SyncBatchNorm-153                                          [[1, 256, 64, 64]]                                                                               [1, 256, 64, 64]                                              1,024     
    ConvBNReLU-74                                            [[1, 256, 64, 64]]                                                                               [1, 256, 64, 64]                                                0       
      Conv2D-154                                             [[1, 256, 64, 64]]                                                                               [1, 256, 64, 64]                                             589,824    
  SyncBatchNorm-154                                          [[1, 256, 64, 64]]                                                                               [1, 256, 64, 64]                                              1,024     
      ConvBN-80                                              [[1, 256, 64, 64]]                                                                               [1, 256, 64, 64]                                                0       
    BasicBlock-55                                            [[1, 256, 64, 64]]                                                                               [1, 256, 64, 64]                                                0       
      Conv2D-155                                             [[1, 256, 64, 64]]                                                                               [1, 256, 64, 64]                                             589,824    
  SyncBatchNorm-155                                          [[1, 256, 64, 64]]                                                                               [1, 256, 64, 64]                                              1,024     
    ConvBNReLU-75                                            [[1, 256, 64, 64]]                                                                               [1, 256, 64, 64]                                                0       
      Conv2D-156                                             [[1, 256, 64, 64]]                                                                               [1, 256, 64, 64]                                             589,824    
  SyncBatchNorm-156                                          [[1, 256, 64, 64]]                                                                               [1, 256, 64, 64]                                              1,024     
      ConvBN-81                                              [[1, 256, 64, 64]]                                                                               [1, 256, 64, 64]                                                0       
    BasicBlock-56                                            [[1, 256, 64, 64]]                                                                               [1, 256, 64, 64]                                                0       
      Branches-5                         [[[1, 64, 256, 256], [1, 128, 128, 128], [1, 256, 64, 64]]]                                      [[1, 64, 256, 256], [1, 128, 128, 128], [1, 256, 64, 64]]                           0       
      Conv2D-157                                            [[1, 128, 128, 128]]                                                                              [1, 64, 128, 128]                                             8,192     
  SyncBatchNorm-157                                          [[1, 64, 128, 128]]                                                                              [1, 64, 128, 128]                                              256      
      ConvBN-82                                             [[1, 128, 128, 128]]                                                                              [1, 64, 128, 128]                                               0       
      Conv2D-158                                             [[1, 256, 64, 64]]                                                                                [1, 64, 64, 64]                                             16,384     
  SyncBatchNorm-158                                           [[1, 64, 64, 64]]                                                                                [1, 64, 64, 64]                                               256      
      ConvBN-83                                              [[1, 256, 64, 64]]                                                                                [1, 64, 64, 64]                                                0       
      Conv2D-159                                             [[1, 64, 256, 256]]                                                                             [1, 128, 128, 128]                                            73,728     
  SyncBatchNorm-159                                         [[1, 128, 128, 128]]                                                                             [1, 128, 128, 128]                                              512      
      ConvBN-84                                              [[1, 64, 256, 256]]                                                                             [1, 128, 128, 128]                                               0       
      Conv2D-160                                             [[1, 256, 64, 64]]                                                                               [1, 128, 64, 64]                                             32,768     
  SyncBatchNorm-160                                          [[1, 128, 64, 64]]                                                                               [1, 128, 64, 64]                                               512      
      ConvBN-85                                              [[1, 256, 64, 64]]                                                                               [1, 128, 64, 64]                                                0       
      Conv2D-161                                             [[1, 64, 256, 256]]                                                                              [1, 64, 128, 128]                                            36,864     
  SyncBatchNorm-161                                          [[1, 64, 128, 128]]                                                                              [1, 64, 128, 128]                                              256      
    ConvBNReLU-76                                            [[1, 64, 256, 256]]                                                                              [1, 64, 128, 128]                                               0       
      Conv2D-162                                             [[1, 64, 128, 128]]                                                                              [1, 256, 64, 64]                                             147,456    
  SyncBatchNorm-162                                          [[1, 256, 64, 64]]                                                                               [1, 256, 64, 64]                                              1,024     
      ConvBN-86                                              [[1, 64, 128, 128]]                                                                              [1, 256, 64, 64]                                                0       
      Conv2D-163                                            [[1, 128, 128, 128]]                                                                              [1, 256, 64, 64]                                             294,912    
  SyncBatchNorm-163                                          [[1, 256, 64, 64]]                                                                               [1, 256, 64, 64]                                              1,024     
      ConvBN-87                                             [[1, 128, 128, 128]]                                                                              [1, 256, 64, 64]                                                0       
     FuseLayers-5                        [[[1, 64, 256, 256], [1, 128, 128, 128], [1, 256, 64, 64]]]                                      [[1, 64, 256, 256], [1, 128, 128, 128], [1, 256, 64, 64]]                           0       
HighResolutionModule-5                   [[[1, 64, 256, 256], [1, 128, 128, 128], [1, 256, 64, 64]]]                                      [[1, 64, 256, 256], [1, 128, 128, 128], [1, 256, 64, 64]]                           0       
       Stage-2                           [[[1, 64, 256, 256], [1, 128, 128, 128], [1, 256, 64, 64]]]                                      [[1, 64, 256, 256], [1, 128, 128, 128], [1, 256, 64, 64]]                           0       
      Conv2D-164                                             [[1, 256, 64, 64]]                                                                               [1, 512, 32, 32]                                            1,179,648   
  SyncBatchNorm-164                                          [[1, 512, 32, 32]]                                                                               [1, 512, 32, 32]                                              2,048     
    ConvBNReLU-77                                            [[1, 256, 64, 64]]                                                                               [1, 512, 32, 32]                                                0       
  TransitionLayer-3                      [[[1, 64, 256, 256], [1, 128, 128, 128], [1, 256, 64, 64]]]                             [[1, 64, 256, 256], [1, 128, 128, 128], [1, 256, 64, 64], [1, 512, 32, 32]]                  0       
      Conv2D-165                                             [[1, 64, 256, 256]]                                                                              [1, 64, 256, 256]                                            36,864     
  SyncBatchNorm-165                                          [[1, 64, 256, 256]]                                                                              [1, 64, 256, 256]                                              256      
    ConvBNReLU-78                                            [[1, 64, 256, 256]]                                                                              [1, 64, 256, 256]                                               0       
      Conv2D-166                                             [[1, 64, 256, 256]]                                                                              [1, 64, 256, 256]                                            36,864     
  SyncBatchNorm-166                                          [[1, 64, 256, 256]]                                                                              [1, 64, 256, 256]                                              256      
      ConvBN-88                                              [[1, 64, 256, 256]]                                                                              [1, 64, 256, 256]                                               0       
    BasicBlock-57                                            [[1, 64, 256, 256]]                                                                              [1, 64, 256, 256]                                               0       
      Conv2D-167                                             [[1, 64, 256, 256]]                                                                              [1, 64, 256, 256]                                            36,864     
  SyncBatchNorm-167                                          [[1, 64, 256, 256]]                                                                              [1, 64, 256, 256]                                              256      
    ConvBNReLU-79                                            [[1, 64, 256, 256]]                                                                              [1, 64, 256, 256]                                               0       
      Conv2D-168                                             [[1, 64, 256, 256]]                                                                              [1, 64, 256, 256]                                            36,864     
  SyncBatchNorm-168                                          [[1, 64, 256, 256]]                                                                              [1, 64, 256, 256]                                              256      
      ConvBN-89                                              [[1, 64, 256, 256]]                                                                              [1, 64, 256, 256]                                               0       
    BasicBlock-58                                            [[1, 64, 256, 256]]                                                                              [1, 64, 256, 256]                                               0       
      Conv2D-169                                             [[1, 64, 256, 256]]                                                                              [1, 64, 256, 256]                                            36,864     
  SyncBatchNorm-169                                          [[1, 64, 256, 256]]                                                                              [1, 64, 256, 256]                                              256      
    ConvBNReLU-80                                            [[1, 64, 256, 256]]                                                                              [1, 64, 256, 256]                                               0       
      Conv2D-170                                             [[1, 64, 256, 256]]                                                                              [1, 64, 256, 256]                                            36,864     
  SyncBatchNorm-170                                          [[1, 64, 256, 256]]                                                                              [1, 64, 256, 256]                                              256      
      ConvBN-90                                              [[1, 64, 256, 256]]                                                                              [1, 64, 256, 256]                                               0       
    BasicBlock-59                                            [[1, 64, 256, 256]]                                                                              [1, 64, 256, 256]                                               0       
      Conv2D-171                                             [[1, 64, 256, 256]]                                                                              [1, 64, 256, 256]                                            36,864     
  SyncBatchNorm-171                                          [[1, 64, 256, 256]]                                                                              [1, 64, 256, 256]                                              256      
    ConvBNReLU-81                                            [[1, 64, 256, 256]]                                                                              [1, 64, 256, 256]                                               0       
      Conv2D-172                                             [[1, 64, 256, 256]]                                                                              [1, 64, 256, 256]                                            36,864     
  SyncBatchNorm-172                                          [[1, 64, 256, 256]]                                                                              [1, 64, 256, 256]                                              256      
      ConvBN-91                                              [[1, 64, 256, 256]]                                                                              [1, 64, 256, 256]                                               0       
    BasicBlock-60                                            [[1, 64, 256, 256]]                                                                              [1, 64, 256, 256]                                               0       
      Conv2D-173                                            [[1, 128, 128, 128]]                                                                             [1, 128, 128, 128]                                            147,456    
  SyncBatchNorm-173                                         [[1, 128, 128, 128]]                                                                             [1, 128, 128, 128]                                              512      
    ConvBNReLU-82                                           [[1, 128, 128, 128]]                                                                             [1, 128, 128, 128]                                               0       
      Conv2D-174                                            [[1, 128, 128, 128]]                                                                             [1, 128, 128, 128]                                            147,456    
  SyncBatchNorm-174                                         [[1, 128, 128, 128]]                                                                             [1, 128, 128, 128]                                              512      
      ConvBN-92                                             [[1, 128, 128, 128]]                                                                             [1, 128, 128, 128]                                               0       
    BasicBlock-61                                           [[1, 128, 128, 128]]                                                                             [1, 128, 128, 128]                                               0       
      Conv2D-175                                            [[1, 128, 128, 128]]                                                                             [1, 128, 128, 128]                                            147,456    
  SyncBatchNorm-175                                         [[1, 128, 128, 128]]                                                                             [1, 128, 128, 128]                                              512      
    ConvBNReLU-83                                           [[1, 128, 128, 128]]                                                                             [1, 128, 128, 128]                                               0       
      Conv2D-176                                            [[1, 128, 128, 128]]                                                                             [1, 128, 128, 128]                                            147,456    
  SyncBatchNorm-176                                         [[1, 128, 128, 128]]                                                                             [1, 128, 128, 128]                                              512      
      ConvBN-93                                             [[1, 128, 128, 128]]                                                                             [1, 128, 128, 128]                                               0       
    BasicBlock-62                                           [[1, 128, 128, 128]]                                                                             [1, 128, 128, 128]                                               0       
      Conv2D-177                                            [[1, 128, 128, 128]]                                                                             [1, 128, 128, 128]                                            147,456    
  SyncBatchNorm-177                                         [[1, 128, 128, 128]]                                                                             [1, 128, 128, 128]                                              512      
    ConvBNReLU-84                                           [[1, 128, 128, 128]]                                                                             [1, 128, 128, 128]                                               0       
      Conv2D-178                                            [[1, 128, 128, 128]]                                                                             [1, 128, 128, 128]                                            147,456    
  SyncBatchNorm-178                                         [[1, 128, 128, 128]]                                                                             [1, 128, 128, 128]                                              512      
      ConvBN-94                                             [[1, 128, 128, 128]]                                                                             [1, 128, 128, 128]                                               0       
    BasicBlock-63                                           [[1, 128, 128, 128]]                                                                             [1, 128, 128, 128]                                               0       
      Conv2D-179                                            [[1, 128, 128, 128]]                                                                             [1, 128, 128, 128]                                            147,456    
  SyncBatchNorm-179                                         [[1, 128, 128, 128]]                                                                             [1, 128, 128, 128]                                              512      
    ConvBNReLU-85                                           [[1, 128, 128, 128]]                                                                             [1, 128, 128, 128]                                               0       
      Conv2D-180                                            [[1, 128, 128, 128]]                                                                             [1, 128, 128, 128]                                            147,456    
  SyncBatchNorm-180                                         [[1, 128, 128, 128]]                                                                             [1, 128, 128, 128]                                              512      
      ConvBN-95                                             [[1, 128, 128, 128]]                                                                             [1, 128, 128, 128]                                               0       
    BasicBlock-64                                           [[1, 128, 128, 128]]                                                                             [1, 128, 128, 128]                                               0       
      Conv2D-181                                             [[1, 256, 64, 64]]                                                                               [1, 256, 64, 64]                                             589,824    
  SyncBatchNorm-181                                          [[1, 256, 64, 64]]                                                                               [1, 256, 64, 64]                                              1,024     
    ConvBNReLU-86                                            [[1, 256, 64, 64]]                                                                               [1, 256, 64, 64]                                                0       
      Conv2D-182                                             [[1, 256, 64, 64]]                                                                               [1, 256, 64, 64]                                             589,824    
  SyncBatchNorm-182                                          [[1, 256, 64, 64]]                                                                               [1, 256, 64, 64]                                              1,024     
      ConvBN-96                                              [[1, 256, 64, 64]]                                                                               [1, 256, 64, 64]                                                0       
    BasicBlock-65                                            [[1, 256, 64, 64]]                                                                               [1, 256, 64, 64]                                                0       
      Conv2D-183                                             [[1, 256, 64, 64]]                                                                               [1, 256, 64, 64]                                             589,824    
  SyncBatchNorm-183                                          [[1, 256, 64, 64]]                                                                               [1, 256, 64, 64]                                              1,024     
    ConvBNReLU-87                                            [[1, 256, 64, 64]]                                                                               [1, 256, 64, 64]                                                0       
      Conv2D-184                                             [[1, 256, 64, 64]]                                                                               [1, 256, 64, 64]                                             589,824    
  SyncBatchNorm-184                                          [[1, 256, 64, 64]]                                                                               [1, 256, 64, 64]                                              1,024     
      ConvBN-97                                              [[1, 256, 64, 64]]                                                                               [1, 256, 64, 64]                                                0       
    BasicBlock-66                                            [[1, 256, 64, 64]]                                                                               [1, 256, 64, 64]                                                0       
      Conv2D-185                                             [[1, 256, 64, 64]]                                                                               [1, 256, 64, 64]                                             589,824    
  SyncBatchNorm-185                                          [[1, 256, 64, 64]]                                                                               [1, 256, 64, 64]                                              1,024     
    ConvBNReLU-88                                            [[1, 256, 64, 64]]                                                                               [1, 256, 64, 64]                                                0       
      Conv2D-186                                             [[1, 256, 64, 64]]                                                                               [1, 256, 64, 64]                                             589,824    
  SyncBatchNorm-186                                          [[1, 256, 64, 64]]                                                                               [1, 256, 64, 64]                                              1,024     
      ConvBN-98                                              [[1, 256, 64, 64]]                                                                               [1, 256, 64, 64]                                                0       
    BasicBlock-67                                            [[1, 256, 64, 64]]                                                                               [1, 256, 64, 64]                                                0       
      Conv2D-187                                             [[1, 256, 64, 64]]                                                                               [1, 256, 64, 64]                                             589,824    
  SyncBatchNorm-187                                          [[1, 256, 64, 64]]                                                                               [1, 256, 64, 64]                                              1,024     
    ConvBNReLU-89                                            [[1, 256, 64, 64]]                                                                               [1, 256, 64, 64]                                                0       
      Conv2D-188                                             [[1, 256, 64, 64]]                                                                               [1, 256, 64, 64]                                             589,824    
  SyncBatchNorm-188                                          [[1, 256, 64, 64]]                                                                               [1, 256, 64, 64]                                              1,024     
      ConvBN-99                                              [[1, 256, 64, 64]]                                                                               [1, 256, 64, 64]                                                0       
…
  SyncBatchNorm-257                                          [[1, 512, 32, 32]]                                                                               [1, 512, 32, 32]                                              2,048     
      ConvBN-141                                              [[1, 64, 64, 64]]                                                                               [1, 512, 32, 32]                                                0       
      Conv2D-258                                            [[1, 128, 128, 128]]                                                                              [1, 128, 64, 64]                                             147,456    
  SyncBatchNorm-258                                          [[1, 128, 64, 64]]                                                                               [1, 128, 64, 64]                                               512      
    ConvBNReLU-117                                          [[1, 128, 128, 128]]                                                                              [1, 128, 64, 64]                                                0       
      Conv2D-259                                             [[1, 128, 64, 64]]                                                                               [1, 512, 32, 32]                                             589,824    
  SyncBatchNorm-259                                          [[1, 512, 32, 32]]                                                                               [1, 512, 32, 32]                                              2,048     
      ConvBN-142                                             [[1, 128, 64, 64]]                                                                               [1, 512, 32, 32]                                                0       
      Conv2D-260                                             [[1, 256, 64, 64]]                                                                               [1, 512, 32, 32]                                            1,179,648   
  SyncBatchNorm-260                                          [[1, 512, 32, 32]]                                                                               [1, 512, 32, 32]                                              2,048     
      ConvBN-143                                             [[1, 256, 64, 64]]                                                                               [1, 512, 32, 32]                                                0       
     FuseLayers-7               [[[1, 64, 256, 256], [1, 128, 128, 128], [1, 256, 64, 64], [1, 512, 32, 32]]]                    [[1, 64, 256, 256], [1, 128, 128, 128], [1, 256, 64, 64], [1, 512, 32, 32]]                  0       
HighResolutionModule-7          [[[1, 64, 256, 256], [1, 128, 128, 128], [1, 256, 64, 64], [1, 512, 32, 32]]]                    [[1, 64, 256, 256], [1, 128, 128, 128], [1, 256, 64, 64], [1, 512, 32, 32]]                  0       
      Conv2D-261                                             [[1, 64, 256, 256]]                                                                              [1, 64, 256, 256]                                            36,864     
  SyncBatchNorm-261                                          [[1, 64, 256, 256]]                                                                              [1, 64, 256, 256]                                              256      
    ConvBNReLU-118                                           [[1, 64, 256, 256]]                                                                              [1, 64, 256, 256]                                               0       
      Conv2D-262                                             [[1, 64, 256, 256]]                                                                              [1, 64, 256, 256]                                            36,864     
  SyncBatchNorm-262                                          [[1, 64, 256, 256]]                                                                              [1, 64, 256, 256]                                              256      
      ConvBN-144                                             [[1, 64, 256, 256]]                                                                              [1, 64, 256, 256]                                               0       
    BasicBlock-89                                            [[1, 64, 256, 256]]                                                                              [1, 64, 256, 256]                                               0       
      Conv2D-263                                             [[1, 64, 256, 256]]                                                                              [1, 64, 256, 256]                                            36,864     
  SyncBatchNorm-263                                          [[1, 64, 256, 256]]                                                                              [1, 64, 256, 256]                                              256      
    ConvBNReLU-119                                           [[1, 64, 256, 256]]                                                                              [1, 64, 256, 256]                                               0       
      Conv2D-264                                             [[1, 64, 256, 256]]                                                                              [1, 64, 256, 256]                                            36,864     
  SyncBatchNorm-264                                          [[1, 64, 256, 256]]                                                                              [1, 64, 256, 256]                                              256      
      ConvBN-145                                             [[1, 64, 256, 256]]                                                                              [1, 64, 256, 256]                                               0       
    BasicBlock-90                                            [[1, 64, 256, 256]]                                                                              [1, 64, 256, 256]                                               0       
      Conv2D-265                                             [[1, 64, 256, 256]]                                                                              [1, 64, 256, 256]                                            36,864     
  SyncBatchNorm-265                                          [[1, 64, 256, 256]]                                                                              [1, 64, 256, 256]                                              256      
    ConvBNReLU-120                                           [[1, 64, 256, 256]]                                                                              [1, 64, 256, 256]                                               0       
      Conv2D-266                                             [[1, 64, 256, 256]]                                                                              [1, 64, 256, 256]                                            36,864     
  SyncBatchNorm-266                                          [[1, 64, 256, 256]]                                                                              [1, 64, 256, 256]                                              256      
      ConvBN-146                                             [[1, 64, 256, 256]]                                                                              [1, 64, 256, 256]                                               0       
    BasicBlock-91                                            [[1, 64, 256, 256]]                                                                              [1, 64, 256, 256]                                               0       
      Conv2D-267                                             [[1, 64, 256, 256]]                                                                              [1, 64, 256, 256]                                            36,864     
  SyncBatchNorm-267                                          [[1, 64, 256, 256]]                                                                              [1, 64, 256, 256]                                              256      
    ConvBNReLU-121                                           [[1, 64, 256, 256]]                                                                              [1, 64, 256, 256]                                               0       
      Conv2D-268                                             [[1, 64, 256, 256]]                                                                              [1, 64, 256, 256]                                            36,864     
  SyncBatchNorm-268                                          [[1, 64, 256, 256]]                                                                              [1, 64, 256, 256]                                              256      
      ConvBN-147                                             [[1, 64, 256, 256]]                                                                              [1, 64, 256, 256]                                               0       
    BasicBlock-92                                            [[1, 64, 256, 256]]                                                                              [1, 64, 256, 256]                                               0       
      Conv2D-269                                            [[1, 128, 128, 128]]                                                                             [1, 128, 128, 128]                                            147,456    
  SyncBatchNorm-269                                         [[1, 128, 128, 128]]                                                                             [1, 128, 128, 128]                                              512      
    ConvBNReLU-122                                          [[1, 128, 128, 128]]                                                                             [1, 128, 128, 128]                                               0       
      Conv2D-270                                            [[1, 128, 128, 128]]                                                                             [1, 128, 128, 128]                                            147,456    
  SyncBatchNorm-270                                         [[1, 128, 128, 128]]                                                                             [1, 128, 128, 128]                                              512      
      ConvBN-148                                            [[1, 128, 128, 128]]                                                                             [1, 128, 128, 128]                                               0       
    BasicBlock-93                                           [[1, 128, 128, 128]]                                                                             [1, 128, 128, 128]                                               0       
      Conv2D-271                                            [[1, 128, 128, 128]]                                                                             [1, 128, 128, 128]                                            147,456    
  SyncBatchNorm-271                                         [[1, 128, 128, 128]]                                                                             [1, 128, 128, 128]                                              512      
    ConvBNReLU-123                                          [[1, 128, 128, 128]]                                                                             [1, 128, 128, 128]                                               0       
      Conv2D-272                                            [[1, 128, 128, 128]]                                                                             [1, 128, 128, 128]                                            147,456    
  SyncBatchNorm-272                                         [[1, 128, 128, 128]]                                                                             [1, 128, 128, 128]                                              512      
      ConvBN-149                                            [[1, 128, 128, 128]]                                                                             [1, 128, 128, 128]                                               0       
    BasicBlock-94                                           [[1, 128, 128, 128]]                                                                             [1, 128, 128, 128]                                               0       
      Conv2D-273                                            [[1, 128, 128, 128]]                                                                             [1, 128, 128, 128]                                            147,456    
  SyncBatchNorm-273                                         [[1, 128, 128, 128]]                                                                             [1, 128, 128, 128]                                              512      
    ConvBNReLU-124                                          [[1, 128, 128, 128]]                                                                             [1, 128, 128, 128]                                               0       
      Conv2D-274                                            [[1, 128, 128, 128]]                                                                             [1, 128, 128, 128]                                            147,456    
  SyncBatchNorm-274                                         [[1, 128, 128, 128]]                                                                             [1, 128, 128, 128]                                              512      
      ConvBN-150                                            [[1, 128, 128, 128]]                                                                             [1, 128, 128, 128]                                               0       
    BasicBlock-95                                           [[1, 128, 128, 128]]                                                                             [1, 128, 128, 128]                                               0       
      Conv2D-275                                            [[1, 128, 128, 128]]                                                                             [1, 128, 128, 128]                                            147,456    
  SyncBatchNorm-275                                         [[1, 128, 128, 128]]                                                                             [1, 128, 128, 128]                                              512      
    ConvBNReLU-125                                          [[1, 128, 128, 128]]                                                                             [1, 128, 128, 128]                                               0       
      Conv2D-276                                            [[1, 128, 128, 128]]                                                                             [1, 128, 128, 128]                                            147,456    
  SyncBatchNorm-276                                         [[1, 128, 128, 128]]                                                                             [1, 128, 128, 128]                                              512      
      ConvBN-151                                            [[1, 128, 128, 128]]                                                                             [1, 128, 128, 128]                                               0       
    BasicBlock-96                                           [[1, 128, 128, 128]]                                                                             [1, 128, 128, 128]                                               0       
      Conv2D-277                                             [[1, 256, 64, 64]]                                                                               [1, 256, 64, 64]                                             589,824    
  SyncBatchNorm-277                                          [[1, 256, 64, 64]]                                                                               [1, 256, 64, 64]                                              1,024     
    ConvBNReLU-126                                           [[1, 256, 64, 64]]                                                                               [1, 256, 64, 64]                                                0       
      Conv2D-278                                             [[1, 256, 64, 64]]                                                                               [1, 256, 64, 64]                                             589,824    
  SyncBatchNorm-278                                          [[1, 256, 64, 64]]                                                                               [1, 256, 64, 64]                                              1,024     
      ConvBN-152                                             [[1, 256, 64, 64]]                                                                               [1, 256, 64, 64]                                                0       
    BasicBlock-97                                            [[1, 256, 64, 64]]                                                                               [1, 256, 64, 64]                                                0       
      Conv2D-279                                             [[1, 256, 64, 64]]                                                                               [1, 256, 64, 64]                                             589,824    
  SyncBatchNorm-279                                          [[1, 256, 64, 64]]                                                                               [1, 256, 64, 64]                                              1,024     
    ConvBNReLU-127                                           [[1, 256, 64, 64]]                                                                               [1, 256, 64, 64]                                                0       
      Conv2D-280                                             [[1, 256, 64, 64]]                                                                               [1, 256, 64, 64]                                             589,824    
  SyncBatchNorm-280                                          [[1, 256, 64, 64]]                                                                               [1, 256, 64, 64]                                              1,024     
      ConvBN-153                                             [[1, 256, 64, 64]]                                                                               [1, 256, 64, 64]                                                0       
    BasicBlock-98                                            [[1, 256, 64, 64]]                                                                               [1, 256, 64, 64]                                                0       
      Conv2D-281                                             [[1, 256, 64, 64]]                                                                               [1, 256, 64, 64]                                             589,824    
  SyncBatchNorm-281                                          [[1, 256, 64, 64]]                                                                               [1, 256, 64, 64]                                              1,024     
    ConvBNReLU-128                                           [[1, 256, 64, 64]]                                                                               [1, 256, 64, 64]                                                0       
      Conv2D-282                                             [[1, 256, 64, 64]]                                                                               [1, 256, 64, 64]                                             589,824    
  SyncBatchNorm-282                                          [[1, 256, 64, 64]]                                                                               [1, 256, 64, 64]                                              1,024     
      ConvBN-154                                             [[1, 256, 64, 64]]                                                                               [1, 256, 64, 64]                                                0       
    BasicBlock-99                                            [[1, 256, 64, 64]]                                                                               [1, 256, 64, 64]                                                0       
      Conv2D-283                                             [[1, 256, 64, 64]]                                                                               [1, 256, 64, 64]                                             589,824    
  SyncBatchNorm-283                                          [[1, 256, 64, 64]]                                                                               [1, 256, 64, 64]                                              1,024     
    ConvBNReLU-129                                           [[1, 256, 64, 64]]                                                                               [1, 256, 64, 64]                                                0       
      Conv2D-284                                             [[1, 256, 64, 64]]                                                                               [1, 256, 64, 64]                                             589,824    
  SyncBatchNorm-284                                          [[1, 256, 64, 64]]                                                                               [1, 256, 64, 64]                                              1,024     
      ConvBN-155                                             [[1, 256, 64, 64]]                                                                               [1, 256, 64, 64]                                                0       
    BasicBlock-100                                           [[1, 256, 64, 64]]                                                                               [1, 256, 64, 64]                                                0       
      Conv2D-285                                             [[1, 512, 32, 32]]                                                                               [1, 512, 32, 32]                                            2,359,296   
  SyncBatchNorm-285                                          [[1, 512, 32, 32]]                                                                               [1, 512, 32, 32]                                              2,048     
    ConvBNReLU-130                                           [[1, 512, 32, 32]]                                                                               [1, 512, 32, 32]                                                0       
      Conv2D-286                                             [[1, 512, 32, 32]]                                                                               [1, 512, 32, 32]                                            2,359,296   
  SyncBatchNorm-286                                          [[1, 512, 32, 32]]                                                                               [1, 512, 32, 32]                                              2,048     
      ConvBN-156                                             [[1, 512, 32, 32]]                                                                               [1, 512, 32, 32]                                                0       
    BasicBlock-101                                           [[1, 512, 32, 32]]                                                                               [1, 512, 32, 32]                                                0       
      Conv2D-287                                             [[1, 512, 32, 32]]                                                                               [1, 512, 32, 32]                                            2,359,296   
  SyncBatchNorm-287                                          [[1, 512, 32, 32]]                                                                               [1, 512, 32, 32]                                              2,048     
    ConvBNReLU-131                                           [[1, 512, 32, 32]]                                                                               [1, 512, 32, 32]                                                0       
      Conv2D-288                                             [[1, 512, 32, 32]]                                                                               [1, 512, 32, 32]                                            2,359,296   
  SyncBatchNorm-288                                          [[1, 512, 32, 32]]                                                                               [1, 512, 32, 32]                                              2,048     
      ConvBN-157                                             [[1, 512, 32, 32]]                                                                               [1, 512, 32, 32]                                                0       
    BasicBlock-102                                           [[1, 512, 32, 32]]                                                                               [1, 512, 32, 32]                                                0       
      Conv2D-289                                             [[1, 512, 32, 32]]                                                                               [1, 512, 32, 32]                                            2,359,296   
  SyncBatchNorm-289                                          [[1, 512, 32, 32]]                                                                               [1, 512, 32, 32]                                              2,048     
    ConvBNReLU-132                                           [[1, 512, 32, 32]]                                                                               [1, 512, 32, 32]                                                0       
      Conv2D-290                                             [[1, 512, 32, 32]]                                                                               [1, 512, 32, 32]                                            2,359,296   
  SyncBatchNorm-290                                          [[1, 512, 32, 32]]                                                                               [1, 512, 32, 32]                                              2,048     
      ConvBN-158                                             [[1, 512, 32, 32]]                                                                               [1, 512, 32, 32]                                                0       
    BasicBlock-103                                           [[1, 512, 32, 32]]                                                                               [1, 512, 32, 32]                                                0       
      Conv2D-291                                             [[1, 512, 32, 32]]                                                                               [1, 512, 32, 32]                                            2,359,296   
  SyncBatchNorm-291                                          [[1, 512, 32, 32]]                                                                               [1, 512, 32, 32]                                              2,048     
    ConvBNReLU-133                                           [[1, 512, 32, 32]]                                                                               [1, 512, 32, 32]                                                0       
      Conv2D-292                                             [[1, 512, 32, 32]]                                                                               [1, 512, 32, 32]                                            2,359,296   
  SyncBatchNorm-292                                          [[1, 512, 32, 32]]                                                                               [1, 512, 32, 32]                                              2,048     
      ConvBN-159                                             [[1, 512, 32, 32]]                                                                               [1, 512, 32, 32]                                                0       
    BasicBlock-104                                           [[1, 512, 32, 32]]                                                                               [1, 512, 32, 32]                                                0       
      Branches-8                [[[1, 64, 256, 256], [1, 128, 128, 128], [1, 256, 64, 64], [1, 512, 32, 32]]]                    [[1, 64, 256, 256], [1, 128, 128, 128], [1, 256, 64, 64], [1, 512, 32, 32]]                  0       
      Conv2D-293                                            [[1, 128, 128, 128]]                                                                              [1, 64, 128, 128]                                             8,192     
  SyncBatchNorm-293                                          [[1, 64, 128, 128]]                                                                              [1, 64, 128, 128]                                              256      
      ConvBN-160                                            [[1, 128, 128, 128]]                                                                              [1, 64, 128, 128]                                               0       
      Conv2D-294                                             [[1, 256, 64, 64]]                                                                                [1, 64, 64, 64]                                             16,384     
  SyncBatchNorm-294                                           [[1, 64, 64, 64]]                                                                                [1, 64, 64, 64]                                               256      
      ConvBN-161                                             [[1, 256, 64, 64]]                                                                                [1, 64, 64, 64]                                                0       
      Conv2D-295                                             [[1, 512, 32, 32]]                                                                                [1, 64, 32, 32]                                             32,768     
  SyncBatchNorm-295                                           [[1, 64, 32, 32]]                                                                                [1, 64, 32, 32]                                               256      
      ConvBN-162                                             [[1, 512, 32, 32]]                                                                                [1, 64, 32, 32]                                                0       
      Conv2D-296                                             [[1, 64, 256, 256]]                                                                             [1, 128, 128, 128]                                            73,728     
  SyncBatchNorm-296                                         [[1, 128, 128, 128]]                                                                             [1, 128, 128, 128]                                              512      
      ConvBN-163                                             [[1, 64, 256, 256]]                                                                             [1, 128, 128, 128]                                               0       
      Conv2D-297                                             [[1, 256, 64, 64]]                                                                               [1, 128, 64, 64]                                             32,768     
  SyncBatchNorm-297                                          [[1, 128, 64, 64]]                                                                               [1, 128, 64, 64]                                               512      
      ConvBN-164                                             [[1, 256, 64, 64]]                                                                               [1, 128, 64, 64]                                                0       
      Conv2D-298                                             [[1, 512, 32, 32]]                                                                               [1, 128, 32, 32]                                             65,536     
  SyncBatchNorm-298                                          [[1, 128, 32, 32]]                                                                               [1, 128, 32, 32]                                               512      
      ConvBN-165                                             [[1, 512, 32, 32]]                                                                               [1, 128, 32, 32]                                                0       
      Conv2D-299                                             [[1, 64, 256, 256]]                                                                              [1, 64, 128, 128]                                            36,864     
  SyncBatchNorm-299                                          [[1, 64, 128, 128]]                                                                              [1, 64, 128, 128]                                              256      
    ConvBNReLU-134                                           [[1, 64, 256, 256]]                                                                              [1, 64, 128, 128]                                               0       
      Conv2D-300                                             [[1, 64, 128, 128]]                                                                              [1, 256, 64, 64]                                             147,456    
  SyncBatchNorm-300                                          [[1, 256, 64, 64]]                                                                               [1, 256, 64, 64]                                              1,024     
      ConvBN-166                                             [[1, 64, 128, 128]]                                                                              [1, 256, 64, 64]                                                0       
      Conv2D-301                                            [[1, 128, 128, 128]]                                                                              [1, 256, 64, 64]                                             294,912    
  SyncBatchNorm-301                                          [[1, 256, 64, 64]]                                                                               [1, 256, 64, 64]                                              1,024     
      ConvBN-167                                            [[1, 128, 128, 128]]                                                                              [1, 256, 64, 64]                                                0       
      Conv2D-302                                             [[1, 512, 32, 32]]                                                                               [1, 256, 32, 32]                                             131,072    
  SyncBatchNorm-302                                          [[1, 256, 32, 32]]                                                                               [1, 256, 32, 32]                                              1,024     
      ConvBN-168                                             [[1, 512, 32, 32]]                                                                               [1, 256, 32, 32]                                                0       
      Conv2D-303                                             [[1, 64, 256, 256]]                                                                              [1, 64, 128, 128]                                            36,864     
  SyncBatchNorm-303                                          [[1, 64, 128, 128]]                                                                              [1, 64, 128, 128]                                              256      
    ConvBNReLU-135                                           [[1, 64, 256, 256]]                                                                              [1, 64, 128, 128]                                               0       
      Conv2D-304                                             [[1, 64, 128, 128]]                                                                               [1, 64, 64, 64]                                             36,864     
  SyncBatchNorm-304                                           [[1, 64, 64, 64]]                                                                                [1, 64, 64, 64]                                               256      
    ConvBNReLU-136                                           [[1, 64, 128, 128]]                                                                               [1, 64, 64, 64]                                                0       
      Conv2D-305                                              [[1, 64, 64, 64]]                                                                               [1, 512, 32, 32]                                             294,912    
  SyncBatchNorm-305                                          [[1, 512, 32, 32]]                                                                               [1, 512, 32, 32]                                              2,048     
      ConvBN-169                                              [[1, 64, 64, 64]]                                                                               [1, 512, 32, 32]                                                0       
      Conv2D-306                                            [[1, 128, 128, 128]]                                                                              [1, 128, 64, 64]                                             147,456    
  SyncBatchNorm-306                                          [[1, 128, 64, 64]]                                                                               [1, 128, 64, 64]                                               512      
    ConvBNReLU-137                                          [[1, 128, 128, 128]]                                                                              [1, 128, 64, 64]                                                0       
      Conv2D-307                                             [[1, 128, 64, 64]]                                                                               [1, 512, 32, 32]                                             589,824    
  SyncBatchNorm-307                                          [[1, 512, 32, 32]]                                                                               [1, 512, 32, 32]                                              2,048     
      ConvBN-170                                             [[1, 128, 64, 64]]                                                                               [1, 512, 32, 32]                                                0       
      Conv2D-308                                             [[1, 256, 64, 64]]                                                                               [1, 512, 32, 32]                                            1,179,648   
  SyncBatchNorm-308                                          [[1, 512, 32, 32]]                                                                               [1, 512, 32, 32]                                              2,048     
      ConvBN-171                                             [[1, 256, 64, 64]]                                                                               [1, 512, 32, 32]                                                0       
     FuseLayers-8               [[[1, 64, 256, 256], [1, 128, 128, 128], [1, 256, 64, 64], [1, 512, 32, 32]]]                    [[1, 64, 256, 256], [1, 128, 128, 128], [1, 256, 64, 64], [1, 512, 32, 32]]                  0       
HighResolutionModule-8          [[[1, 64, 256, 256], [1, 128, 128, 128], [1, 256, 64, 64], [1, 512, 32, 32]]]                    [[1, 64, 256, 256], [1, 128, 128, 128], [1, 256, 64, 64], [1, 512, 32, 32]]                  0       
       Stage-3                  [[[1, 64, 256, 256], [1, 128, 128, 128], [1, 256, 64, 64], [1, 512, 32, 32]]]                    [[1, 64, 256, 256], [1, 128, 128, 128], [1, 256, 64, 64], [1, 512, 32, 32]]                  0       
       Conv2D-3                                              [[1, 512, 32, 32]]                                                                               [1, 512, 16, 16]                                            2,359,296   
   SyncBatchNorm-3                                           [[1, 512, 16, 16]]                                                                               [1, 512, 16, 16]                                              2,048     
     ConvBNReLU-3                                            [[1, 512, 32, 32]]                                                                               [1, 512, 16, 16]                                                0       
      Encoder-1                                              [[1, 3, 256, 256]]                                        [[1, 512, 16, 16], [[1, 64, 256, 256], [1, 128, 128, 128], [1, 256, 64, 64], [1, 512, 32, 32]]]        0       
      Upsample-1                                             [[1, 512, 16, 16]]                                                                               [1, 512, 32, 32]                                                0       
      Conv2D-309                                             [[1, 1024, 32, 32]]                                                                              [1, 256, 32, 32]                                            2,359,552   
  SyncBatchNorm-309                                          [[1, 256, 32, 32]]                                                                               [1, 256, 32, 32]                                              1,024     
    ConvBNReLU-138                                           [[1, 1024, 32, 32]]                                                                              [1, 256, 32, 32]                                                0       
      Conv2D-310                                             [[1, 256, 32, 32]]                                                                               [1, 256, 32, 32]                                             590,080    
  SyncBatchNorm-310                                          [[1, 256, 32, 32]]                                                                               [1, 256, 32, 32]                                              1,024     
    ConvBNReLU-139                                           [[1, 256, 32, 32]]                                                                               [1, 256, 32, 32]                                                0       
     UpSampling-1                                   [[1, 512, 16, 16], [1, 512, 32, 32]]                                                                      [1, 256, 32, 32]                                                0       
      Upsample-2                                             [[1, 256, 32, 32]]                                                                               [1, 256, 64, 64]                                                0       
      Conv2D-311                                             [[1, 512, 64, 64]]                                                                               [1, 128, 64, 64]                                             589,952    
  SyncBatchNorm-311                                          [[1, 128, 64, 64]]                                                                               [1, 128, 64, 64]                                               512      
    ConvBNReLU-140                                           [[1, 512, 64, 64]]                                                                               [1, 128, 64, 64]                                                0       
      Conv2D-312                                             [[1, 128, 64, 64]]                                                                               [1, 128, 64, 64]                                             147,584    
  SyncBatchNorm-312                                          [[1, 128, 64, 64]]                                                                               [1, 128, 64, 64]                                               512      
    ConvBNReLU-141                                           [[1, 128, 64, 64]]                                                                               [1, 128, 64, 64]                                                0       
     UpSampling-2                                   [[1, 256, 32, 32], [1, 256, 64, 64]]                                                                      [1, 128, 64, 64]                                                0       
      Upsample-3                                             [[1, 128, 64, 64]]                                                                              [1, 128, 128, 128]                                               0       
      Conv2D-313                                            [[1, 256, 128, 128]]                                                                              [1, 64, 128, 128]                                            147,520    
  SyncBatchNorm-313                                          [[1, 64, 128, 128]]                                                                              [1, 64, 128, 128]                                              256      
    ConvBNReLU-142                                          [[1, 256, 128, 128]]                                                                              [1, 64, 128, 128]                                               0       
      Conv2D-314                                             [[1, 64, 128, 128]]                                                                              [1, 64, 128, 128]                                            36,928     
  SyncBatchNorm-314                                          [[1, 64, 128, 128]]                                                                              [1, 64, 128, 128]                                              256      
    ConvBNReLU-143                                           [[1, 64, 128, 128]]                                                                              [1, 64, 128, 128]                                               0       
     UpSampling-3                                  [[1, 128, 64, 64], [1, 128, 128, 128]]                                                                     [1, 64, 128, 128]                                               0       
      Upsample-4                                             [[1, 64, 128, 128]]                                                                              [1, 64, 256, 256]                                               0       
      Conv2D-315                                            [[1, 128, 256, 256]]                                                                              [1, 64, 256, 256]                                            73,792     
  SyncBatchNorm-315                                          [[1, 64, 256, 256]]                                                                              [1, 64, 256, 256]                                              256      
    ConvBNReLU-144                                          [[1, 128, 256, 256]]                                                                              [1, 64, 256, 256]                                               0       
      Conv2D-316                                             [[1, 64, 256, 256]]                                                                              [1, 64, 256, 256]                                            36,928     
  SyncBatchNorm-316                                          [[1, 64, 256, 256]]                                                                              [1, 64, 256, 256]                                              256      
    ConvBNReLU-145                                           [[1, 64, 256, 256]]                                                                              [1, 64, 256, 256]                                               0       
     UpSampling-4                                  [[1, 64, 128, 128], [1, 64, 256, 256]]                                                                     [1, 64, 256, 256]                                               0       
      Decoder-1        [[1, 512, 16, 16], [[1, 64, 256, 256], [1, 128, 128, 128], [1, 256, 64, 64], [1, 512, 32, 32]]]                                        [1, 64, 256, 256]                                               0       
      Conv2D-317                                             [[1, 64, 256, 256]]                                                                              [1, 2, 256, 256]                                              1,154     
========================================================================================================================================================================================================================================
Total params: 122,157,378
Trainable params: 121,929,538
Non-trainable params: 227,840
----------------------------------------------------------------------------------------------------------------------------------------------------------------------------------------------------------------------------------------
…
