…
       Layer (type)                                                  Input Shape                                                                                    Output Shape                                               Param #    
============================================================================================================================================================================================================================================
         Conv2D-1                                                [[1, 3, 256, 256]]                                                                               [1, 64, 256, 256]                                             1,728     
     SyncBatchNorm-1                                             [[1, 64, 256, 256]]                                                                              [1, 64, 256, 256]                                              256      
       ConvBNReLU-1                                              [[1, 3, 256, 256]]                                                                               [1, 64, 256, 256]                                               0       
         Conv2D-2                                                [[1, 64, 256, 256]]                                                                              [1, 64, 256, 256]                                            36,864     
     SyncBatchNorm-2                                             [[1, 64, 256, 256]]                                                                              [1, 64, 256, 256]                                              256      
       ConvBNReLU-2                                              [[1, 64, 256, 256]]                                                                              [1, 64, 256, 256]                                               0       
         Conv2D-6                                                [[1, 64, 256, 256]]                                                                              [1, 40, 256, 256]                                             2,560     
     SyncBatchNorm-6                                             [[1, 40, 256, 256]]                                                                              [1, 40, 256, 256]                                              160      
       ConvBNReLU-6                                              [[1, 64, 256, 256]]                                                                              [1, 40, 256, 256]                                               0       
         Conv2D-7                                                [[1, 8, 256, 256]]                                                                               [1, 8, 256, 256]                                               64       
         Conv2D-8                                                [[1, 12, 256, 256]]                                                                              [1, 12, 256, 256]                                              144      
         Conv2D-9                                                [[1, 14, 256, 256]]                                                                              [1, 14, 256, 256]                                              196      
        Conv2D-10                                                [[1, 15, 256, 256]]                                                                              [1, 15, 256, 256]                                              225      
        HSBlock-1                                                [[1, 40, 256, 256]]                                                                              [1, 40, 256, 256]                                               0       
     SyncBatchNorm-7                                             [[1, 40, 256, 256]]                                                                              [1, 40, 256, 256]                                              160      
          ReLU-1                                                 [[1, 40, 256, 256]]                                                                              [1, 40, 256, 256]                                               0       
     HSBlockBNReLU-1                                             [[1, 40, 256, 256]]                                                                              [1, 40, 256, 256]                                               0       
        Conv2D-11                                                [[1, 40, 256, 256]]                                                                              [1, 64, 256, 256]                                             2,560     
     SyncBatchNorm-8                                             [[1, 64, 256, 256]]                                                                              [1, 64, 256, 256]                                              256      
         ConvBN-1                                                [[1, 40, 256, 256]]                                                                              [1, 64, 256, 256]                                               0       
          ReLU-2                                                 [[1, 64, 256, 256]]                                                                              [1, 64, 256, 256]                                               0       
      HSBottleNeck-1                                             [[1, 64, 256, 256]]                                                                              [1, 64, 256, 256]                                               0       
        Conv2D-12                                                [[1, 64, 256, 256]]                                                                              [1, 40, 256, 256]                                             2,560     
     SyncBatchNorm-9                                             [[1, 40, 256, 256]]                                                                              [1, 40, 256, 256]                                              160      
       ConvBNReLU-7                                              [[1, 64, 256, 256]]                                                                              [1, 40, 256, 256]                                               0       
        Conv2D-13                                                [[1, 8, 256, 256]]                                                                               [1, 8, 256, 256]                                               576      
        Conv2D-14                                                [[1, 12, 256, 256]]                                                                              [1, 12, 256, 256]                                             1,296     
        Conv2D-15                                                [[1, 14, 256, 256]]                                                                              [1, 14, 256, 256]                                             1,764     
        Conv2D-16                                                [[1, 15, 256, 256]]                                                                              [1, 15, 256, 256]                                             2,025     
        HSBlock-2                                                [[1, 40, 256, 256]]                                                                              [1, 40, 256, 256]                                               0       
     SyncBatchNorm-10                                            [[1, 40, 256, 256]]                                                                              [1, 40, 256, 256]                                              160      
          ReLU-3                                                 [[1, 40, 256, 256]]                                                                              [1, 40, 256, 256]                                               0       
     HSBlockBNReLU-2                                             [[1, 40, 256, 256]]                                                                              [1, 40, 256, 256]                                               0       
        Conv2D-17                                                [[1, 40, 256, 256]]                                                                              [1, 64, 256, 256]                                             2,560     
     SyncBatchNorm-11                                            [[1, 64, 256, 256]]                                                                              [1, 64, 256, 256]                                              256      
         ConvBN-2                                                [[1, 40, 256, 256]]                                                                              [1, 64, 256, 256]                                               0       
          ReLU-4                                                 [[1, 64, 256, 256]]                                                                              [1, 64, 256, 256]                                               0       
      HSBottleNeck-2                                             [[1, 64, 256, 256]]                                                                              [1, 64, 256, 256]                                               0       
        Conv2D-18                                                [[1, 64, 256, 256]]                                                                              [1, 40, 256, 256]                                             2,560     
     SyncBatchNorm-12                                            [[1, 40, 256, 256]]                                                                              [1, 40, 256, 256]                                              160      
       ConvBNReLU-8                                              [[1, 64, 256, 256]]                                                                              [1, 40, 256, 256]                                               0       
        Conv2D-19                                                [[1, 8, 256, 256]]                                                                               [1, 8, 256, 256]                                               64       
        Conv2D-20                                                [[1, 12, 256, 256]]                                                                              [1, 12, 256, 256]                                              144      
        Conv2D-21                                                [[1, 14, 256, 256]]                                                                              [1, 14, 256, 256]                                              196      
        Conv2D-22                                                [[1, 15, 256, 256]]                                                                              [1, 15, 256, 256]                                              225      
        HSBlock-3                                                [[1, 40, 256, 256]]                                                                              [1, 40, 256, 256]                                               0       
     SyncBatchNorm-13                                            [[1, 40, 256, 256]]                                                                              [1, 40, 256, 256]                                              160      
          ReLU-5                                                 [[1, 40, 256, 256]]                                                                              [1, 40, 256, 256]                                               0       
     HSBlockBNReLU-3                                             [[1, 40, 256, 256]]                                                                              [1, 40, 256, 256]                                               0       
        Conv2D-23                                                [[1, 40, 256, 256]]                                                                             [1, 256, 256, 256]                                            10,240     
     SyncBatchNorm-14                                           [[1, 256, 256, 256]]                                                                             [1, 256, 256, 256]                                             1,024     
         ConvBN-3                                                [[1, 40, 256, 256]]                                                                             [1, 256, 256, 256]                                               0       
        Conv2D-24                                                [[1, 64, 256, 256]]                                                                             [1, 256, 256, 256]                                            16,384     
     SyncBatchNorm-15                                           [[1, 256, 256, 256]]                                                                             [1, 256, 256, 256]                                             1,024     
         ConvBN-4                                                [[1, 64, 256, 256]]                                                                             [1, 256, 256, 256]                                               0       
HSBottleNeckWithOutReLU-1                                        [[1, 64, 256, 256]]                                                                             [1, 256, 256, 256]                                               0       
        Conv2D-25                                                [[1, 64, 256, 256]]                                                                              [1, 40, 256, 256]                                             2,560     
     SyncBatchNorm-16                                            [[1, 40, 256, 256]]                                                                              [1, 40, 256, 256]                                              160      
       ConvBNReLU-9                                              [[1, 64, 256, 256]]                                                                              [1, 40, 256, 256]                                               0       
        Conv2D-26                                                [[1, 8, 256, 256]]                                                                               [1, 8, 256, 256]                                               64       
        Conv2D-27                                                [[1, 12, 256, 256]]                                                                              [1, 12, 256, 256]                                              144      
        Conv2D-28                                                [[1, 14, 256, 256]]                                                                              [1, 14, 256, 256]                                              196      
        Conv2D-29                                                [[1, 15, 256, 256]]                                                                              [1, 15, 256, 256]                                              225      
        HSBlock-4                                                [[1, 40, 256, 256]]                                                                              [1, 40, 256, 256]                                               0       
     SyncBatchNorm-17                                            [[1, 40, 256, 256]]                                                                              [1, 40, 256, 256]                                              160      
          ReLU-6                                                 [[1, 40, 256, 256]]                                                                              [1, 40, 256, 256]                                               0       
     HSBlockBNReLU-4                                             [[1, 40, 256, 256]]                                                                              [1, 40, 256, 256]                                               0       
        Conv2D-30                                                [[1, 40, 256, 256]]                                                                             [1, 256, 256, 256]                                            10,240     
     SyncBatchNorm-18                                           [[1, 256, 256, 256]]                                                                             [1, 256, 256, 256]                                             1,024     
         ConvBN-5                                                [[1, 40, 256, 256]]                                                                             [1, 256, 256, 256]                                               0       
        Conv2D-31                                                [[1, 64, 256, 256]]                                                                             [1, 256, 256, 256]                                            16,384     
     SyncBatchNorm-19                                           [[1, 256, 256, 256]]                                                                             [1, 256, 256, 256]                                             1,024     
         ConvBN-6                                                [[1, 64, 256, 256]]                                                                             [1, 256, 256, 256]                                               0       
HSBottleNeckWithOutReLU-2                                        [[1, 64, 256, 256]]                                                                             [1, 256, 256, 256]                                               0       
    BottleneckBlock-1                                            [[1, 64, 256, 256]]                                                                             [1, 256, 256, 256]                                               0       
        Conv2D-32                                               [[1, 256, 256, 256]]                                                                              [1, 40, 256, 256]                                            10,240     
     SyncBatchNorm-20                                            [[1, 40, 256, 256]]                                                                              [1, 40, 256, 256]                                              160      
      ConvBNReLU-10                                             [[1, 256, 256, 256]]                                                                              [1, 40, 256, 256]                                               0       
        Conv2D-33                                                [[1, 8, 256, 256]]                                                                               [1, 8, 256, 256]                                               64       
        Conv2D-34                                                [[1, 12, 256, 256]]                                                                              [1, 12, 256, 256]                                              144      
        Conv2D-35                                                [[1, 14, 256, 256]]                                                                              [1, 14, 256, 256]                                              196      
        Conv2D-36                                                [[1, 15, 256, 256]]                                                                              [1, 15, 256, 256]                                              225      
        HSBlock-5                                                [[1, 40, 256, 256]]                                                                              [1, 40, 256, 256]                                               0       
     SyncBatchNorm-21                                            [[1, 40, 256, 256]]                                                                              [1, 40, 256, 256]                                              160      
          ReLU-7                                                 [[1, 40, 256, 256]]                                                                              [1, 40, 256, 256]                                               0       
     HSBlockBNReLU-5                                             [[1, 40, 256, 256]]                                                                              [1, 40, 256, 256]                                               0       
        Conv2D-37                                                [[1, 40, 256, 256]]                                                                              [1, 64, 256, 256]                                             2,560     
     SyncBatchNorm-22                                            [[1, 64, 256, 256]]                                                                              [1, 64, 256, 256]                                              256      
         ConvBN-7                                                [[1, 40, 256, 256]]                                                                              [1, 64, 256, 256]                                               0       
        Conv2D-38                                               [[1, 256, 256, 256]]                                                                              [1, 64, 256, 256]                                            16,384     
     SyncBatchNorm-23                                            [[1, 64, 256, 256]]                                                                              [1, 64, 256, 256]                                              256      
         ConvBN-8                                               [[1, 256, 256, 256]]                                                                              [1, 64, 256, 256]                                               0       
          ReLU-8                                                 [[1, 64, 256, 256]]                                                                              [1, 64, 256, 256]                                               0       
      HSBottleNeck-3                                            [[1, 256, 256, 256]]                                                                              [1, 64, 256, 256]                                               0       
        Conv2D-39                                                [[1, 64, 256, 256]]                                                                              [1, 40, 256, 256]                                             2,560     
     SyncBatchNorm-24                                            [[1, 40, 256, 256]]                                                                              [1, 40, 256, 256]                                              160      
      ConvBNReLU-11                                              [[1, 64, 256, 256]]                                                                              [1, 40, 256, 256]                                               0       
        Conv2D-40                                                [[1, 8, 256, 256]]                                                                               [1, 8, 256, 256]                                               576      
        Conv2D-41                                                [[1, 12, 256, 256]]                                                                              [1, 12, 256, 256]                                             1,296     
        Conv2D-42                                                [[1, 14, 256, 256]]                                                                              [1, 14, 256, 256]                                             1,764     
        Conv2D-43                                                [[1, 15, 256, 256]]                                                                              [1, 15, 256, 256]                                             2,025     
        HSBlock-6                                                [[1, 40, 256, 256]]                                                                              [1, 40, 256, 256]                                               0       
     SyncBatchNorm-25                                            [[1, 40, 256, 256]]                                                                              [1, 40, 256, 256]                                              160      
          ReLU-9                                                 [[1, 40, 256, 256]]                                                                              [1, 40, 256, 256]                                               0       
     HSBlockBNReLU-6                                             [[1, 40, 256, 256]]                                                                              [1, 40, 256, 256]                                               0       
        Conv2D-44                                                [[1, 40, 256, 256]]                                                                              [1, 64, 256, 256]                                             2,560     
     SyncBatchNorm-26                                            [[1, 64, 256, 256]]                                                                              [1, 64, 256, 256]                                              256      
         ConvBN-9                                                [[1, 40, 256, 256]]                                                                              [1, 64, 256, 256]                                               0       
         ReLU-10                                                 [[1, 64, 256, 256]]                                                                              [1, 64, 256, 256]                                               0       
      HSBottleNeck-4                                             [[1, 64, 256, 256]]                                                                              [1, 64, 256, 256]                                               0       
        Conv2D-45                                                [[1, 64, 256, 256]]                                                                              [1, 40, 256, 256]                                             2,560     
     SyncBatchNorm-27                                            [[1, 40, 256, 256]]                                                                              [1, 40, 256, 256]                                              160      
      ConvBNReLU-12                                              [[1, 64, 256, 256]]                                                                              [1, 40, 256, 256]                                               0       
        Conv2D-46                                                [[1, 8, 256, 256]]                                                                               [1, 8, 256, 256]                                               64       
        Conv2D-47                                                [[1, 12, 256, 256]]                                                                              [1, 12, 256, 256]                                              144      
        Conv2D-48                                                [[1, 14, 256, 256]]                                                                              [1, 14, 256, 256]                                              196      
        Conv2D-49                                                [[1, 15, 256, 256]]                                                                              [1, 15, 256, 256]                                              225      
        HSBlock-7                                                [[1, 40, 256, 256]]                                                                              [1, 40, 256, 256]                                               0       
     SyncBatchNorm-28                                            [[1, 40, 256, 256]]                                                                              [1, 40, 256, 256]                                              160      
         ReLU-11                                                 [[1, 40, 256, 256]]                                                                              [1, 40, 256, 256]                                               0       
     HSBlockBNReLU-7                                             [[1, 40, 256, 256]]                                                                              [1, 40, 256, 256]                                               0       
        Conv2D-50                                                [[1, 40, 256, 256]]                                                                             [1, 256, 256, 256]                                            10,240     
     SyncBatchNorm-29                                           [[1, 256, 256, 256]]                                                                             [1, 256, 256, 256]                                             1,024     
        ConvBN-10                                                [[1, 40, 256, 256]]                                                                             [1, 256, 256, 256]                                               0       
        Conv2D-51                                                [[1, 64, 256, 256]]                                                                             [1, 256, 256, 256]                                            16,384     
     SyncBatchNorm-30                                           [[1, 256, 256, 256]]                                                                             [1, 256, 256, 256]                                             1,024     
        ConvBN-11                                                [[1, 64, 256, 256]]                                                                             [1, 256, 256, 256]                                               0       
HSBottleNeckWithOutReLU-3                                        [[1, 64, 256, 256]]                                                                             [1, 256, 256, 256]                                               0       
    BottleneckBlock-2                                           [[1, 256, 256, 256]]                                                                             [1, 256, 256, 256]                                               0       
         Layer1-1                                                [[1, 64, 256, 256]]                                                                             [1, 256, 256, 256]                                               0       
        Conv2D-52                                               [[1, 256, 256, 256]]                                                                              [1, 40, 256, 256]                                            10,240     
     SyncBatchNorm-31                                            [[1, 40, 256, 256]]                                                                              [1, 40, 256, 256]                                              160      
      ConvBNReLU-13                                             [[1, 256, 256, 256]]                                                                              [1, 40, 256, 256]                                               0       
        Conv2D-53                                                [[1, 8, 256, 256]]                                                                               [1, 8, 256, 256]                                               576      
        Conv2D-54                                                [[1, 12, 256, 256]]                                                                              [1, 12, 256, 256]                                             1,296     
        Conv2D-55                                                [[1, 14, 256, 256]]                                                                              [1, 14, 256, 256]                                             1,764     
        Conv2D-56                                                [[1, 15, 256, 256]]                                                                              [1, 15, 256, 256]                                             2,025     
        HSBlock-8                                                [[1, 40, 256, 256]]                                                                              [1, 40, 256, 256]                                               0       
     SyncBatchNorm-32                                            [[1, 40, 256, 256]]                                                                              [1, 40, 256, 256]                                              160      
         ReLU-12                                                 [[1, 40, 256, 256]]                                                                              [1, 40, 256, 256]                                               0       
     HSBlockBNReLU-8                                             [[1, 40, 256, 256]]                                                                              [1, 40, 256, 256]                                               0       
        Conv2D-57                                                [[1, 40, 256, 256]]                                                                              [1, 64, 256, 256]                                             2,560     
     SyncBatchNorm-33                                            [[1, 64, 256, 256]]                                                                              [1, 64, 256, 256]                                              256      
        ConvBN-12                                                [[1, 40, 256, 256]]                                                                              [1, 64, 256, 256]                                               0       
        Conv2D-58                                               [[1, 256, 256, 256]]                                                                              [1, 64, 256, 256]                                            16,384     
     SyncBatchNorm-34                                            [[1, 64, 256, 256]]                                                                              [1, 64, 256, 256]                                              256      
        ConvBN-13                                               [[1, 256, 256, 256]]                                                                              [1, 64, 256, 256]                                               0       
         ReLU-13                                                 [[1, 64, 256, 256]]                                                                              [1, 64, 256, 256]                                               0       
      HSBottleNeck-5                                            [[1, 256, 256, 256]]                                                                              [1, 64, 256, 256]                                               0       
        Conv2D-59                                               [[1, 256, 256, 256]]                                                                             [1, 128, 128, 128]                                            294,912    
     SyncBatchNorm-35                                           [[1, 128, 128, 128]]                                                                             [1, 128, 128, 128]                                              512      
      ConvBNReLU-14                                             [[1, 256, 256, 256]]                                                                             [1, 128, 128, 128]                                               0       
    TransitionLayer-1                                          [[[1, 256, 256, 256]]]                                                                  [[1, 64, 256, 256], [1, 128, 128, 128]]                                    0       
        Conv2D-60                                                [[1, 64, 256, 256]]                                                                              [1, 40, 256, 256]                                             2,560     
     SyncBatchNorm-36                                            [[1, 40, 256, 256]]                                                                              [1, 40, 256, 256]                                              160      
      ConvBNReLU-15                                              [[1, 64, 256, 256]]                                                                              [1, 40, 256, 256]                                               0       
        Conv2D-61                                                [[1, 8, 256, 256]]                                                                               [1, 8, 256, 256]                                               576      
        Conv2D-62                                                [[1, 12, 256, 256]]                                                                              [1, 12, 256, 256]                                             1,296     
        Conv2D-63                                                [[1, 14, 256, 256]]                                                                              [1, 14, 256, 256]                                             1,764     
        Conv2D-64                                                [[1, 15, 256, 256]]                                                                              [1, 15, 256, 256]                                             2,025     
        HSBlock-9                                                [[1, 40, 256, 256]]                                                                              [1, 40, 256, 256]                                               0       
     SyncBatchNorm-37                                            [[1, 40, 256, 256]]                                                                              [1, 40, 256, 256]                                              160      
         ReLU-14                                                 [[1, 40, 256, 256]]                                                                              [1, 40, 256, 256]                                               0       
     HSBlockBNReLU-9                                             [[1, 40, 256, 256]]                                                                              [1, 40, 256, 256]                                               0       
        Conv2D-65                                                [[1, 40, 256, 256]]                                                                              [1, 64, 256, 256]                                             2,560     
     SyncBatchNorm-38                                            [[1, 64, 256, 256]]                                                                              [1, 64, 256, 256]                                              256      
        ConvBN-14                                                [[1, 40, 256, 256]]                                                                              [1, 64, 256, 256]                                               0       
         ReLU-15                                                 [[1, 64, 256, 256]]                                                                              [1, 64, 256, 256]                                               0       
      HSBottleNeck-6                                             [[1, 64, 256, 256]]                                                                              [1, 64, 256, 256]                                               0       
        Conv2D-66                                                [[1, 64, 256, 256]]                                                                              [1, 40, 256, 256]                                             2,560     
     SyncBatchNorm-39                                            [[1, 40, 256, 256]]                                                                              [1, 40, 256, 256]                                              160      
      ConvBNReLU-16                                              [[1, 64, 256, 256]]                                                                              [1, 40, 256, 256]                                               0       
        Conv2D-67                                                [[1, 8, 256, 256]]                                                                               [1, 8, 256, 256]                                               576      
        Conv2D-68                                                [[1, 12, 256, 256]]                                                                              [1, 12, 256, 256]                                             1,296     
        Conv2D-69                                                [[1, 14, 256, 256]]                                                                              [1, 14, 256, 256]                                             1,764     
        Conv2D-70                                                [[1, 15, 256, 256]]                                                                              [1, 15, 256, 256]                                             2,025     
        HSBlock-10                                               [[1, 40, 256, 256]]                                                                              [1, 40, 256, 256]                                               0       
     SyncBatchNorm-40                                            [[1, 40, 256, 256]]                                                                              [1, 40, 256, 256]                                              160      
         ReLU-16                                                 [[1, 40, 256, 256]]                                                                              [1, 40, 256, 256]                                               0       
     HSBlockBNReLU-10                                            [[1, 40, 256, 256]]                                                                              [1, 40, 256, 256]                                               0       
        Conv2D-71                                                [[1, 40, 256, 256]]                                                                              [1, 64, 256, 256]                                             2,560     
     SyncBatchNorm-41                                            [[1, 64, 256, 256]]                                                                              [1, 64, 256, 256]                                              256      
        ConvBN-15                                                [[1, 40, 256, 256]]                                                                              [1, 64, 256, 256]                                               0       
HSBottleNeckWithOutReLU-4                                        [[1, 64, 256, 256]]                                                                              [1, 64, 256, 256]                                               0       
       BasicBlock-1                                              [[1, 64, 256, 256]]                                                                              [1, 64, 256, 256]                                               0       
        Conv2D-72                                                [[1, 64, 256, 256]]                                                                              [1, 40, 256, 256]                                             2,560     
     SyncBatchNorm-42                                            [[1, 40, 256, 256]]                                                                              [1, 40, 256, 256]                                              160      
      ConvBNReLU-17                                              [[1, 64, 256, 256]]                                                                              [1, 40, 256, 256]                                               0       
        Conv2D-73                                                [[1, 8, 256, 256]]                                                                               [1, 8, 256, 256]                                               576      
        Conv2D-74                                                [[1, 12, 256, 256]]                                                                              [1, 12, 256, 256]                                             1,296     
        Conv2D-75                                                [[1, 14, 256, 256]]                                                                              [1, 14, 256, 256]                                             1,764     
        Conv2D-76                                                [[1, 15, 256, 256]]                                                                              [1, 15, 256, 256]                                             2,025     
        HSBlock-11                                               [[1, 40, 256, 256]]                                                                              [1, 40, 256, 256]                                               0       
     SyncBatchNorm-43                                            [[1, 40, 256, 256]]                                                                              [1, 40, 256, 256]                                              160      
         ReLU-17                                                 [[1, 40, 256, 256]]                                                                              [1, 40, 256, 256]                                               0       
     HSBlockBNReLU-11                                            [[1, 40, 256, 256]]                                                                              [1, 40, 256, 256]                                               0       
        Conv2D-77                                                [[1, 40, 256, 256]]                                                                              [1, 64, 256, 256]                                             2,560     
     SyncBatchNorm-44                                            [[1, 64, 256, 256]]                                                                              [1, 64, 256, 256]                                              256      
        ConvBN-16                                                [[1, 40, 256, 256]]                                                                              [1, 64, 256, 256]                                               0       
         ReLU-18                                                 [[1, 64, 256, 256]]                                                                              [1, 64, 256, 256]                                               0       
      HSBottleNeck-7                                             [[1, 64, 256, 256]]                                                                              [1, 64, 256, 256]                                               0       
        Conv2D-78                                                [[1, 64, 256, 256]]                                                                              [1, 40, 256, 256]                                             2,560     
     SyncBatchNorm-45                                            [[1, 40, 256, 256]]                                                                              [1, 40, 256, 256]                                              160      
      ConvBNReLU-18                                              [[1, 64, 256, 256]]                                                                              [1, 40, 256, 256]                                               0       
        Conv2D-79                                                [[1, 8, 256, 256]]                                                                               [1, 8, 256, 256]                                               576      
        Conv2D-80                                                [[1, 12, 256, 256]]                                                                              [1, 12, 256, 256]                                             1,296     
        Conv2D-81                                                [[1, 14, 256, 256]]                                                                              [1, 14, 256, 256]                                             1,764     
        Conv2D-82                                                [[1, 15, 256, 256]]                                                                              [1, 15, 256, 256]                                             2,025     
        HSBlock-12                                               [[1, 40, 256, 256]]                                                                              [1, 40, 256, 256]                                               0       
     SyncBatchNorm-46                                            [[1, 40, 256, 256]]                                                                              [1, 40, 256, 256]                                              160      
         ReLU-19                                                 [[1, 40, 256, 256]]                                                                              [1, 40, 256, 256]                                               0       
     HSBlockBNReLU-12                                            [[1, 40, 256, 256]]                                                                              [1, 40, 256, 256]                                               0       
        Conv2D-83                                                [[1, 40, 256, 256]]                                                                              [1, 64, 256, 256]                                             2,560     
     SyncBatchNorm-47                                            [[1, 64, 256, 256]]                                                                              [1, 64, 256, 256]                                              256      
        ConvBN-17                                                [[1, 40, 256, 256]]                                                                              [1, 64, 256, 256]                                               0       
HSBottleNeckWithOutReLU-5                                        [[1, 64, 256, 256]]                                                                              [1, 64, 256, 256]                                               0       
       BasicBlock-2                                              [[1, 64, 256, 256]]                                                                              [1, 64, 256, 256]                                               0       
        Conv2D-84                                               [[1, 128, 128, 128]]                                                                              [1, 40, 128, 128]                                             5,120     
     SyncBatchNorm-48                                            [[1, 40, 128, 128]]                                                                              [1, 40, 128, 128]                                              160      
      ConvBNReLU-19                                             [[1, 128, 128, 128]]                                                                              [1, 40, 128, 128]                                               0       
        Conv2D-85                                                [[1, 8, 128, 128]]                                                                               [1, 8, 128, 128]                                               576      
        Conv2D-86                                                [[1, 12, 128, 128]]                                                                              [1, 12, 128, 128]                                             1,296     
        Conv2D-87                                                [[1, 14, 128, 128]]                                                                              [1, 14, 128, 128]                                             1,764     
        Conv2D-88                                                [[1, 15, 128, 128]]                                                                              [1, 15, 128, 128]                                             2,025     
        HSBlock-13                                               [[1, 40, 128, 128]]                                                                              [1, 40, 128, 128]                                               0       
     SyncBatchNorm-49                                            [[1, 40, 128, 128]]                                                                              [1, 40, 128, 128]                                              160      
         ReLU-20                                                 [[1, 40, 128, 128]]                                                                              [1, 40, 128, 128]                                               0       
     HSBlockBNReLU-13                                            [[1, 40, 128, 128]]                                                                              [1, 40, 128, 128]                                               0       
        Conv2D-89                                                [[1, 40, 128, 128]]                                                                             [1, 128, 128, 128]                                             5,120     
     SyncBatchNorm-50                                           [[1, 128, 128, 128]]                                                                             [1, 128, 128, 128]                                              512      
        ConvBN-18                                                [[1, 40, 128, 128]]                                                                             [1, 128, 128, 128]                                               0       
         ReLU-21                                                [[1, 128, 128, 128]]                                                                             [1, 128, 128, 128]                                               0       
      HSBottleNeck-8                                            [[1, 128, 128, 128]]                                                                             [1, 128, 128, 128]                                               0       
        Conv2D-90                                               [[1, 128, 128, 128]]                                                                              [1, 40, 128, 128]                                             5,120     
     SyncBatchNorm-51                                            [[1, 40, 128, 128]]                                                                              [1, 40, 128, 128]                                              160      
      ConvBNReLU-20                                             [[1, 128, 128, 128]]                                                                              [1, 40, 128, 128]                                               0       
        Conv2D-91                                                [[1, 8, 128, 128]]                                                                               [1, 8, 128, 128]                                               576      
        Conv2D-92                                                [[1, 12, 128, 128]]                                                                              [1, 12, 128, 128]                                             1,296     
        Conv2D-93                                                [[1, 14, 128, 128]]                                                                              [1, 14, 128, 128]                                             1,764     
        Conv2D-94                                                [[1, 15, 128, 128]]                                                                              [1, 15, 128, 128]                                             2,025     
        HSBlock-14                                               [[1, 40, 128, 128]]                                                                              [1, 40, 128, 128]                                               0       
     SyncBatchNorm-52                                            [[1, 40, 128, 128]]                                                                              [1, 40, 128, 128]                                              160      
         ReLU-22                                                 [[1, 40, 128, 128]]                                                                              [1, 40, 128, 128]                                               0       
     HSBlockBNReLU-14                                            [[1, 40, 128, 128]]                                                                              [1, 40, 128, 128]                                               0       
        Conv2D-95                                                [[1, 40, 128, 128]]                                                                             [1, 128, 128, 128]                                             5,120     
     SyncBatchNorm-53                                           [[1, 128, 128, 128]]                                                                             [1, 128, 128, 128]                                              512      
        ConvBN-19                                                [[1, 40, 128, 128]]                                                                             [1, 128, 128, 128]                                               0       
HSBottleNeckWithOutReLU-6                                       [[1, 128, 128, 128]]                                                                             [1, 128, 128, 128]                                               0       
       BasicBlock-3                                             [[1, 128, 128, 128]]                                                                             [1, 128, 128, 128]                                               0       
        Conv2D-96                                               [[1, 128, 128, 128]]                                                                              [1, 40, 128, 128]                                             5,120     
     SyncBatchNorm-54                                            [[1, 40, 128, 128]]                                                                              [1, 40, 128, 128]                                              160      
      ConvBNReLU-21                                             [[1, 128, 128, 128]]                                                                              [1, 40, 128, 128]                                               0       
        Conv2D-97                                                [[1, 8, 128, 128]]                                                                               [1, 8, 128, 128]                                               576      
        Conv2D-98                                                [[1, 12, 128, 128]]                                                                              [1, 12, 128, 128]                                             1,296     
        Conv2D-99                                                [[1, 14, 128, 128]]                                                                              [1, 14, 128, 128]                                             1,764     
        Conv2D-100                                               [[1, 15, 128, 128]]                                                                              [1, 15, 128, 128]                                             2,025     
        HSBlock-15                                               [[1, 40, 128, 128]]                                                                              [1, 40, 128, 128]                                               0       
     SyncBatchNorm-55                                            [[1, 40, 128, 128]]                                                                              [1, 40, 128, 128]                                              160      
         ReLU-23                                                 [[1, 40, 128, 128]]                                                                              [1, 40, 128, 128]                                               0       
     HSBlockBNReLU-15                                            [[1, 40, 128, 128]]                                                                              [1, 40, 128, 128]                                               0       
        Conv2D-101                                               [[1, 40, 128, 128]]                                                                             [1, 128, 128, 128]                                             5,120     
     SyncBatchNorm-56                                           [[1, 128, 128, 128]]                                                                             [1, 128, 128, 128]                                              512      
        ConvBN-20                                                [[1, 40, 128, 128]]                                                                             [1, 128, 128, 128]                                               0       
         ReLU-24                                                [[1, 128, 128, 128]]                                                                             [1, 128, 128, 128]                                               0       
      HSBottleNeck-9                                            [[1, 128, 128, 128]]                                                                             [1, 128, 128, 128]                                               0       
        Conv2D-102                                              [[1, 128, 128, 128]]                                                                              [1, 40, 128, 128]                                             5,120     
     SyncBatchNorm-57                                            [[1, 40, 128, 128]]                                                                              [1, 40, 128, 128]                                              160      
      ConvBNReLU-22                                             [[1, 128, 128, 128]]                                                                              [1, 40, 128, 128]                                               0       
        Conv2D-103                                               [[1, 8, 128, 128]]                                                                               [1, 8, 128, 128]                                               576      
        Conv2D-104                                               [[1, 12, 128, 128]]                                                                              [1, 12, 128, 128]                                             1,296     
        Conv2D-105                                               [[1, 14, 128, 128]]                                                                              [1, 14, 128, 128]                                             1,764     
        Conv2D-106                                               [[1, 15, 128, 128]]                                                                              [1, 15, 128, 128]                                             2,025     
        HSBlock-16                                               [[1, 40, 128, 128]]                                                                              [1, 40, 128, 128]                                               0       
     SyncBatchNorm-58                                            [[1, 40, 128, 128]]                                                                              [1, 40, 128, 128]                                              160      
         ReLU-25                                                 [[1, 40, 128, 128]]                                                                              [1, 40, 128, 128]                                               0       
     HSBlockBNReLU-16                                            [[1, 40, 128, 128]]                                                                              [1, 40, 128, 128]                                               0       
        Conv2D-107                                               [[1, 40, 128, 128]]                                                                             [1, 128, 128, 128]                                             5,120     
     SyncBatchNorm-59                                           [[1, 128, 128, 128]]                                                                             [1, 128, 128, 128]                                              512      
        ConvBN-21                                                [[1, 40, 128, 128]]                                                                             [1, 128, 128, 128]                                               0       
HSBottleNeckWithOutReLU-7                                       [[1, 128, 128, 128]]                                                                             [1, 128, 128, 128]                                               0       
       BasicBlock-4                                             [[1, 128, 128, 128]]                                                                             [1, 128, 128, 128]                                               0       
        Branches-1                                    [[[1, 64, 256, 256], [1, 128, 128, 128]]]                                                        [[1, 64, 256, 256], [1, 128, 128, 128]]                                    0       
        Conv2D-108                                              [[1, 128, 128, 128]]                                                                              [1, 40, 128, 128]                                             5,120     
     SyncBatchNorm-60                                            [[1, 40, 128, 128]]                                                                              [1, 40, 128, 128]                                              160      
      ConvBNReLU-23                                             [[1, 128, 128, 128]]                                                                              [1, 40, 128, 128]                                               0       
        Conv2D-109                                               [[1, 8, 128, 128]]                                                                               [1, 8, 128, 128]                                               64       
        Conv2D-110                                               [[1, 12, 128, 128]]                                                                              [1, 12, 128, 128]                                              144      
        Conv2D-111                                               [[1, 14, 128, 128]]                                                                              [1, 14, 128, 128]                                              196      
        Conv2D-112                                               [[1, 15, 128, 128]]                                                                              [1, 15, 128, 128]                                              225      
        HSBlock-17                                               [[1, 40, 128, 128]]                                                                              [1, 40, 128, 128]                                               0       
     SyncBatchNorm-61                                            [[1, 40, 128, 128]]                                                                              [1, 40, 128, 128]                                              160      
         ReLU-26                                                 [[1, 40, 128, 128]]                                                                              [1, 40, 128, 128]                                               0       
     HSBlockBNReLU-17                                            [[1, 40, 128, 128]]                                                                              [1, 40, 128, 128]                                               0       
        Conv2D-113                                               [[1, 40, 128, 128]]                                                                              [1, 64, 128, 128]                                             2,560     
     SyncBatchNorm-62                                            [[1, 64, 128, 128]]                                                                              [1, 64, 128, 128]                                              256      
        ConvBN-22                                                [[1, 40, 128, 128]]                                                                              [1, 64, 128, 128]                                               0       
        Conv2D-114                                              [[1, 128, 128, 128]]                                                                              [1, 64, 128, 128]                                             8,192     
     SyncBatchNorm-63                                            [[1, 64, 128, 128]]                                                                              [1, 64, 128, 128]                                              256      
        ConvBN-23                                               [[1, 128, 128, 128]]                                                                              [1, 64, 128, 128]                                               0       
HSBottleNeckWithOutReLU-8                                       [[1, 128, 128, 128]]                                                                              [1, 64, 128, 128]                                               0       
        Conv2D-115                                               [[1, 64, 256, 256]]                                                                             [1, 128, 128, 128]                                            73,728     
     SyncBatchNorm-64                                           [[1, 128, 128, 128]]                                                                             [1, 128, 128, 128]                                              512      
        ConvBN-24                                                [[1, 64, 256, 256]]                                                                             [1, 128, 128, 128]                                               0       
       FuseLayers-1                                   [[[1, 64, 256, 256], [1, 128, 128, 128]]]                                                        [[1, 64, 256, 256], [1, 128, 128, 128]]                                    0       
  HighResolutionModule-1                              [[[1, 64, 256, 256], [1, 128, 128, 128]]]                                                        [[1, 64, 256, 256], [1, 128, 128, 128]]                                    0       
         Stage-1                                      [[[1, 64, 256, 256], [1, 128, 128, 128]]]                                                        [[1, 64, 256, 256], [1, 128, 128, 128]]                                    0       
        Conv2D-116                                              [[1, 128, 128, 128]]                                                                              [1, 256, 64, 64]                                             294,912    
     SyncBatchNorm-65                                            [[1, 256, 64, 64]]                                                                               [1, 256, 64, 64]                                              1,024     
      ConvBNReLU-24                                             [[1, 128, 128, 128]]                                                                              [1, 256, 64, 64]                                                0       
    TransitionLayer-2                                 [[[1, 64, 256, 256], [1, 128, 128, 128]]]                                               [[1, 64, 256, 256], [1, 128, 128, 128], [1, 256, 64, 64]]                           0       
        Conv2D-117                                               [[1, 64, 256, 256]]                                                                              [1, 40, 256, 256]                                             2,560     
     SyncBatchNorm-66                                            [[1, 40, 256, 256]]                                                                              [1, 40, 256, 256]                                              160      
      ConvBNReLU-25                                              [[1, 64, 256, 256]]                                                                              [1, 40, 256, 256]                                               0       
        Conv2D-118                                               [[1, 8, 256, 256]]                                                                               [1, 8, 256, 256]                                               576      
        Conv2D-119                                               [[1, 12, 256, 256]]                                                                              [1, 12, 256, 256]                                             1,296     
        Conv2D-120                                               [[1, 14, 256, 256]]                                                                              [1, 14, 256, 256]                                             1,764     
        Conv2D-121                                               [[1, 15, 256, 256]]                                                                              [1, 15, 256, 256]                                             2,025     
        HSBlock-18                                               [[1, 40, 256, 256]]                                                                              [1, 40, 256, 256]                                               0       
     SyncBatchNorm-67                                            [[1, 40, 256, 256]]                                                                              [1, 40, 256, 256]                                              160      
         ReLU-27                                                 [[1, 40, 256, 256]]                                                                              [1, 40, 256, 256]                                               0       
     HSBlockBNReLU-18                                            [[1, 40, 256, 256]]                                                                              [1, 40, 256, 256]                                               0       
        Conv2D-122                                               [[1, 40, 256, 256]]                                                                              [1, 64, 256, 256]                                             2,560     
     SyncBatchNorm-68                                            [[1, 64, 256, 256]]                                                                              [1, 64, 256, 256]                                              256      
        ConvBN-25                                                [[1, 40, 256, 256]]                                                                              [1, 64, 256, 256]                                               0       
         ReLU-28                                                 [[1, 64, 256, 256]]                                                                              [1, 64, 256, 256]                                               0       
     HSBottleNeck-10                                             [[1, 64, 256, 256]]                                                                              [1, 64, 256, 256]                                               0       
        Conv2D-123                                               [[1, 64, 256, 256]]                                                                              [1, 40, 256, 256]                                             2,560     
     SyncBatchNorm-69                                            [[1, 40, 256, 256]]                                                                              [1, 40, 256, 256]                                              160      
      ConvBNReLU-26                                              [[1, 64, 256, 256]]                                                                              [1, 40, 256, 256]                                               0       
        Conv2D-124                                               [[1, 8, 256, 256]]                                                                               [1, 8, 256, 256]                                               576      
        Conv2D-125                                               [[1, 12, 256, 256]]                                                                              [1, 12, 256, 256]                                             1,296     
        Conv2D-126                                               [[1, 14, 256, 256]]                                                                              [1, 14, 256, 256]                                             1,764     
        Conv2D-127                                               [[1, 15, 256, 256]]                                                                              [1, 15, 256, 256]                                             2,025     
        HSBlock-19                                               [[1, 40, 256, 256]]                                                                              [1, 40, 256, 256]                                               0       
     SyncBatchNorm-70                                            [[1, 40, 256, 256]]                                                                              [1, 40, 256, 256]                                              160      
         ReLU-29                                                 [[1, 40, 256, 256]]                                                                              [1, 40, 256, 256]                                               0       
     HSBlockBNReLU-19                                            [[1, 40, 256, 256]]                                                                              [1, 40, 256, 256]                                               0       
        Conv2D-128                                               [[1, 40, 256, 256]]                                                                              [1, 64, 256, 256]                                             2,560     
     SyncBatchNorm-71                                            [[1, 64, 256, 256]]                                                                              [1, 64, 256, 256]                                              256      
        ConvBN-26                                                [[1, 40, 256, 256]]                                                                              [1, 64, 256, 256]                                               0       
HSBottleNeckWithOutReLU-9                                        [[1, 64, 256, 256]]                                                                              [1, 64, 256, 256]                                               0       
       BasicBlock-5                                              [[1, 64, 256, 256]]                                                                              [1, 64, 256, 256]                                               0       
        Conv2D-129                                               [[1, 64, 256, 256]]                                                                              [1, 40, 256, 256]                                             2,560     
     SyncBatchNorm-72                                            [[1, 40, 256, 256]]                                                                              [1, 40, 256, 256]                                              160      
      ConvBNReLU-27                                              [[1, 64, 256, 256]]                                                                              [1, 40, 256, 256]                                               0       
        Conv2D-130                                               [[1, 8, 256, 256]]                                                                               [1, 8, 256, 256]                                               576      
        Conv2D-131                                               [[1, 12, 256, 256]]                                                                              [1, 12, 256, 256]                                             1,296     
        Conv2D-132                                               [[1, 14, 256, 256]]                                                                              [1, 14, 256, 256]                                             1,764     
        Conv2D-133                                               [[1, 15, 256, 256]]                                                                              [1, 15, 256, 256]                                             2,025     
        HSBlock-20                                               [[1, 40, 256, 256]]                                                                              [1, 40, 256, 256]                                               0       
     SyncBatchNorm-73                                            [[1, 40, 256, 256]]                                                                              [1, 40, 256, 256]                                              160      
         ReLU-30                                                 [[1, 40, 256, 256]]                                                                              [1, 40, 256, 256]                                               0       
     HSBlockBNReLU-20                                            [[1, 40, 256, 256]]                                                                              [1, 40, 256, 256]                                               0       
        Conv2D-134                                               [[1, 40, 256, 256]]                                                                              [1, 64, 256, 256]                                             2,560     
     SyncBatchNorm-74                                            [[1, 64, 256, 256]]                                                                              [1, 64, 256, 256]                                              256      
        ConvBN-27                                                [[1, 40, 256, 256]]                                                                              [1, 64, 256, 256]                                               0       
         ReLU-31                                                 [[1, 64, 256, 256]]                                                                              [1, 64, 256, 256]                                               0       
     HSBottleNeck-11                                             [[1, 64, 256, 256]]                                                                              [1, 64, 256, 256]                                               0       
        Conv2D-135                                               [[1, 64, 256, 256]]                                                                              [1, 40, 256, 256]                                             2,560     
     SyncBatchNorm-75                                            [[1, 40, 256, 256]]                                                                              [1, 40, 256, 256]                                              160      
      ConvBNReLU-28                                              [[1, 64, 256, 256]]                                                                              [1, 40, 256, 256]                                               0       
        Conv2D-136                                               [[1, 8, 256, 256]]                                                                               [1, 8, 256, 256]                                               576      
        Conv2D-137                                               [[1, 12, 256, 256]]                                                                              [1, 12, 256, 256]                                             1,296     
        Conv2D-138                                               [[1, 14, 256, 256]]                                                                              [1, 14, 256, 256]                                             1,764     
        Conv2D-139                                               [[1, 15, 256, 256]]                                                                              [1, 15, 256, 256]                                             2,025     
        HSBlock-21                                               [[1, 40, 256, 256]]                                                                              [1, 40, 256, 256]                                               0       
     SyncBatchNorm-76                                            [[1, 40, 256, 256]]                                                                              [1, 40, 256, 256]                                              160      
         ReLU-32                                                 [[1, 40, 256, 256]]                                                                              [1, 40, 256, 256]                                               0       
     HSBlockBNReLU-21                                            [[1, 40, 256, 256]]                                                                              [1, 40, 256, 256]                                               0       
        Conv2D-140                                               [[1, 40, 256, 256]]                                                                              [1, 64, 256, 256]                                             2,560     
     SyncBatchNorm-77                                            [[1, 64, 256, 256]]                                                                              [1, 64, 256, 256]                                              256      
        ConvBN-28                                                [[1, 40, 256, 256]]                                                                              [1, 64, 256, 256]                                               0       
HSBottleNeckWithOutReLU-10                                       [[1, 64, 256, 256]]                                                                              [1, 64, 256, 256]                                               0       
       BasicBlock-6                                              [[1, 64, 256, 256]]                                                                              [1, 64, 256, 256]                                               0       
        Conv2D-141                                              [[1, 128, 128, 128]]                                                                              [1, 40, 128, 128]                                             5,120     
     SyncBatchNorm-78                                            [[1, 40, 128, 128]]                                                                              [1, 40, 128, 128]                                              160      
      ConvBNReLU-29                                             [[1, 128, 128, 128]]                                                                              [1, 40, 128, 128]                                               0       
        Conv2D-142                                               [[1, 8, 128, 128]]                                                                               [1, 8, 128, 128]                                               576      
        Conv2D-143                                               [[1, 12, 128, 128]]                                                                              [1, 12, 128, 128]                                             1,296     
        Conv2D-144                                               [[1, 14, 128, 128]]                                                                              [1, 14, 128, 128]                                             1,764     
        Conv2D-145                                               [[1, 15, 128, 128]]                                                                              [1, 15, 128, 128]                                             2,025     
        HSBlock-22                                               [[1, 40, 128, 128]]                                                                              [1, 40, 128, 128]                                               0       
     SyncBatchNorm-79                                            [[1, 40, 128, 128]]                                                                              [1, 40, 128, 128]                                              160      
         ReLU-33                                                 [[1, 40, 128, 128]]                                                                              [1, 40, 128, 128]                                               0       
     HSBlockBNReLU-22                                            [[1, 40, 128, 128]]                                                                              [1, 40, 128, 128]                                               0       
        Conv2D-146                                               [[1, 40, 128, 128]]                                                                             [1, 128, 128, 128]                                             5,120     
     SyncBatchNorm-80                                           [[1, 128, 128, 128]]                                                                             [1, 128, 128, 128]                                              512      
        ConvBN-29                                                [[1, 40, 128, 128]]                                                                             [1, 128, 128, 128]                                               0       
         ReLU-34                                                [[1, 128, 128, 128]]                                                                             [1, 128, 128, 128]                                               0       
     HSBottleNeck-12                                            [[1, 128, 128, 128]]                                                                             [1, 128, 128, 128]                                               0       
        Conv2D-147                                              [[1, 128, 128, 128]]                                                                              [1, 40, 128, 128]                                             5,120     
     SyncBatchNorm-81                                            [[1, 40, 128, 128]]                                                                              [1, 40, 128, 128]                                              160      
      ConvBNReLU-30                                             [[1, 128, 128, 128]]                                                                              [1, 40, 128, 128]                                               0       
        Conv2D-148                                               [[1, 8, 128, 128]]                                                                               [1, 8, 128, 128]                                               576      
        Conv2D-149                                               [[1, 12, 128, 128]]                                                                              [1, 12, 128, 128]                                             1,296     
        Conv2D-150                                               [[1, 14, 128, 128]]                                                                              [1, 14, 128, 128]                                             1,764     
        Conv2D-151                                               [[1, 15, 128, 128]]                                                                              [1, 15, 128, 128]                                             2,025     
        HSBlock-23                                               [[1, 40, 128, 128]]                                                                              [1, 40, 128, 128]                                               0       
     SyncBatchNorm-82                                            [[1, 40, 128, 128]]                                                                              [1, 40, 128, 128]                                              160      
         ReLU-35                                                 [[1, 40, 128, 128]]                                                                              [1, 40, 128, 128]                                               0       
     HSBlockBNReLU-23                                            [[1, 40, 128, 128]]                                                                              [1, 40, 128, 128]                                               0       
        Conv2D-152                                               [[1, 40, 128, 128]]                                                                             [1, 128, 128, 128]                                             5,120     
     SyncBatchNorm-83                                           [[1, 128, 128, 128]]                                                                             [1, 128, 128, 128]                                              512      
        ConvBN-30                                                [[1, 40, 128, 128]]                                                                             [1, 128, 128, 128]                                               0       
HSBottleNeckWithOutReLU-11                                      [[1, 128, 128, 128]]                                                                             [1, 128, 128, 128]                                               0       
       BasicBlock-7                                             [[1, 128, 128, 128]]                                                                             [1, 128, 128, 128]                                               0       
        Conv2D-153                                              [[1, 128, 128, 128]]                                                                              [1, 40, 128, 128]                                             5,120     
     SyncBatchNorm-84                                            [[1, 40, 128, 128]]                                                                              [1, 40, 128, 128]                                              160      
      ConvBNReLU-31                                             [[1, 128, 128, 128]]                                                                              [1, 40, 128, 128]                                               0       
        Conv2D-154                                               [[1, 8, 128, 128]]                                                                               [1, 8, 128, 128]                                               576      
        Conv2D-155                                               [[1, 12, 128, 128]]                                                                              [1, 12, 128, 128]                                             1,296     
        Conv2D-156                                               [[1, 14, 128, 128]]                                                                              [1, 14, 128, 128]                                             1,764     
        Conv2D-157                                               [[1, 15, 128, 128]]                                                                              [1, 15, 128, 128]                                             2,025     
        HSBlock-24                                               [[1, 40, 128, 128]]                                                                              [1, 40, 128, 128]                                               0       
     SyncBatchNorm-85                                            [[1, 40, 128, 128]]                                                                              [1, 40, 128, 128]                                              160      
         ReLU-36                                                 [[1, 40, 128, 128]]                                                                              [1, 40, 128, 128]                                               0       
     HSBlockBNReLU-24                                            [[1, 40, 128, 128]]                                                                              [1, 40, 128, 128]                                               0       
        Conv2D-158                                               [[1, 40, 128, 128]]                                                                             [1, 128, 128, 128]                                             5,120     
     SyncBatchNorm-86                                           [[1, 128, 128, 128]]                                                                             [1, 128, 128, 128]                                              512      
        ConvBN-31                                                [[1, 40, 128, 128]]                                                                             [1, 128, 128, 128]                                               0       
         ReLU-37                                                [[1, 128, 128, 128]]                                                                             [1, 128, 128, 128]                                               0       
     HSBottleNeck-13                                            [[1, 128, 128, 128]]                                                                             [1, 128, 128, 128]                                               0       
        Conv2D-159                                              [[1, 128, 128, 128]]                                                                              [1, 40, 128, 128]                                             5,120     
     SyncBatchNorm-87                                            [[1, 40, 128, 128]]                                                                              [1, 40, 128, 128]                                              160      
      ConvBNReLU-32                                             [[1, 128, 128, 128]]                                                                              [1, 40, 128, 128]                                               0       
        Conv2D-160                                               [[1, 8, 128, 128]]                                                                               [1, 8, 128, 128]                                               576      
        Conv2D-161                                               [[1, 12, 128, 128]]                                                                              [1, 12, 128, 128]                                             1,296     
        Conv2D-162                                               [[1, 14, 128, 128]]                                                                              [1, 14, 128, 128]                                             1,764     
        Conv2D-163                                               [[1, 15, 128, 128]]                                                                              [1, 15, 128, 128]                                             2,025     
        HSBlock-25                                               [[1, 40, 128, 128]]                                                                              [1, 40, 128, 128]                                               0       
     SyncBatchNorm-88                                            [[1, 40, 128, 128]]                                                                              [1, 40, 128, 128]                                              160      
         ReLU-38                                                 [[1, 40, 128, 128]]                                                                              [1, 40, 128, 128]                                               0       
     HSBlockBNReLU-25                                            [[1, 40, 128, 128]]                                                                              [1, 40, 128, 128]                                               0       
        Conv2D-164                                               [[1, 40, 128, 128]]                                                                             [1, 128, 128, 128]                                             5,120     
     SyncBatchNorm-89                                           [[1, 128, 128, 128]]                                                                             [1, 128, 128, 128]                                              512      
        ConvBN-32                                                [[1, 40, 128, 128]]                                                                             [1, 128, 128, 128]                                               0       
HSBottleNeckWithOutReLU-12                                      [[1, 128, 128, 128]]                                                                             [1, 128, 128, 128]                                               0       
       BasicBlock-8                                             [[1, 128, 128, 128]]                                                                             [1, 128, 128, 128]                                               0       
        Conv2D-165                                               [[1, 256, 64, 64]]                                                                                [1, 40, 64, 64]                                             10,240     
     SyncBatchNorm-90                                             [[1, 40, 64, 64]]                                                                                [1, 40, 64, 64]                                               160      
      ConvBNReLU-33                                              [[1, 256, 64, 64]]                                                                                [1, 40, 64, 64]                                                0       
        Conv2D-166                                                [[1, 8, 64, 64]]                                                                                 [1, 8, 64, 64]                                                576      
        Conv2D-167                                                [[1, 12, 64, 64]]                                                                                [1, 12, 64, 64]                                              1,296     
        Conv2D-168                                                [[1, 14, 64, 64]]                                                                                [1, 14, 64, 64]                                              1,764     
        Conv2D-169                                                [[1, 15, 64, 64]]                                                                                [1, 15, 64, 64]                                              2,025     
        HSBlock-26                                                [[1, 40, 64, 64]]                                                                                [1, 40, 64, 64]                                                0       
     SyncBatchNorm-91                                             [[1, 40, 64, 64]]                                                                                [1, 40, 64, 64]                                               160      
         ReLU-39                                                  [[1, 40, 64, 64]]                                                                                [1, 40, 64, 64]                                                0       
     HSBlockBNReLU-26                                             [[1, 40, 64, 64]]                                                                                [1, 40, 64, 64]                                                0       
        Conv2D-170                                                [[1, 40, 64, 64]]                                                                               [1, 256, 64, 64]                                             10,240     
     SyncBatchNorm-92                                            [[1, 256, 64, 64]]                                                                               [1, 256, 64, 64]                                              1,024     
        ConvBN-33                                                 [[1, 40, 64, 64]]                                                                               [1, 256, 64, 64]                                                0       
         ReLU-40                                                 [[1, 256, 64, 64]]                                                                               [1, 256, 64, 64]                                                0       
     HSBottleNeck-14                                             [[1, 256, 64, 64]]                                                                               [1, 256, 64, 64]                                                0       
        Conv2D-171                                               [[1, 256, 64, 64]]                                                                                [1, 40, 64, 64]                                             10,240     
     SyncBatchNorm-93                                             [[1, 40, 64, 64]]                                                                                [1, 40, 64, 64]                                               160      
      ConvBNReLU-34                                              [[1, 256, 64, 64]]                                                                                [1, 40, 64, 64]                                                0       
        Conv2D-172                                                [[1, 8, 64, 64]]                                                                                 [1, 8, 64, 64]                                                576      
        Conv2D-173                                                [[1, 12, 64, 64]]                                                                                [1, 12, 64, 64]                                              1,296     
        Conv2D-174                                                [[1, 14, 64, 64]]                                                                                [1, 14, 64, 64]                                              1,764     
        Conv2D-175                                                [[1, 15, 64, 64]]                                                                                [1, 15, 64, 64]                                              2,025     
        HSBlock-27                                                [[1, 40, 64, 64]]                                                                                [1, 40, 64, 64]                                                0       
     SyncBatchNorm-94                                             [[1, 40, 64, 64]]                                                                                [1, 40, 64, 64]                                               160      
         ReLU-41                                                  [[1, 40, 64, 64]]                                                                                [1, 40, 64, 64]                                                0       
     HSBlockBNReLU-27                                             [[1, 40, 64, 64]]                                                                                [1, 40, 64, 64]                                                0       
        Conv2D-176                                                [[1, 40, 64, 64]]                                                                               [1, 256, 64, 64]                                             10,240     
     SyncBatchNorm-95                                            [[1, 256, 64, 64]]                                                                               [1, 256, 64, 64]                                              1,024     
        ConvBN-34                                                 [[1, 40, 64, 64]]                                                                               [1, 256, 64, 64]                                                0       
HSBottleNeckWithOutReLU-13                                       [[1, 256, 64, 64]]                                                                               [1, 256, 64, 64]                                                0       
       BasicBlock-9                                              [[1, 256, 64, 64]]                                                                               [1, 256, 64, 64]                                                0       
        Conv2D-177                                               [[1, 256, 64, 64]]                                                                                [1, 40, 64, 64]                                             10,240     
     SyncBatchNorm-96                                             [[1, 40, 64, 64]]                                                                                [1, 40, 64, 64]                                               160      
      ConvBNReLU-35                                              [[1, 256, 64, 64]]                                                                                [1, 40, 64, 64]                                                0       
        Conv2D-178                                                [[1, 8, 64, 64]]                                                                                 [1, 8, 64, 64]                                                576      
        Conv2D-179                                                [[1, 12, 64, 64]]                                                                                [1, 12, 64, 64]                                              1,296     
        Conv2D-180                                                [[1, 14, 64, 64]]                                                                                [1, 14, 64, 64]                                              1,764     
        Conv2D-181                                                [[1, 15, 64, 64]]                                                                                [1, 15, 64, 64]                                              2,025     
        HSBlock-28                                                [[1, 40, 64, 64]]                                                                                [1, 40, 64, 64]                                                0       
     SyncBatchNorm-97                                             [[1, 40, 64, 64]]                                                                                [1, 40, 64, 64]                                               160      
         ReLU-42                                                  [[1, 40, 64, 64]]                                                                                [1, 40, 64, 64]                                                0       
     HSBlockBNReLU-28                                             [[1, 40, 64, 64]]                                                                                [1, 40, 64, 64]                                                0       
        Conv2D-182                                                [[1, 40, 64, 64]]                                                                               [1, 256, 64, 64]                                             10,240     
     SyncBatchNorm-98                                            [[1, 256, 64, 64]]                                                                               [1, 256, 64, 64]                                              1,024     
        ConvBN-35                                                 [[1, 40, 64, 64]]                                                                               [1, 256, 64, 64]                                                0       
         ReLU-43                                                 [[1, 256, 64, 64]]                                                                               [1, 256, 64, 64]                                                0       
     HSBottleNeck-15                                             [[1, 256, 64, 64]]                                                                               [1, 256, 64, 64]                                                0       
        Conv2D-183                                               [[1, 256, 64, 64]]                                                                                [1, 40, 64, 64]                                             10,240     
     SyncBatchNorm-99                                             [[1, 40, 64, 64]]                                                                                [1, 40, 64, 64]                                               160      
      ConvBNReLU-36                                              [[1, 256, 64, 64]]                                                                                [1, 40, 64, 64]                                                0       
        Conv2D-184                                                [[1, 8, 64, 64]]                                                                                 [1, 8, 64, 64]                                                576      
        Conv2D-185                                                [[1, 12, 64, 64]]                                                                                [1, 12, 64, 64]                                              1,296     
        Conv2D-186                                                [[1, 14, 64, 64]]                                                                                [1, 14, 64, 64]                                              1,764     
        Conv2D-187                                                [[1, 15, 64, 64]]                                                                                [1, 15, 64, 64]                                              2,025     
        HSBlock-29                                                [[1, 40, 64, 64]]                                                                                [1, 40, 64, 64]                                                0       
    SyncBatchNorm-100                                             [[1, 40, 64, 64]]                                                                                [1, 40, 64, 64]                                               160      
         ReLU-44                                                  [[1, 40, 64, 64]]                                                                                [1, 40, 64, 64]                                                0       
     HSBlockBNReLU-29                                             [[1, 40, 64, 64]]                                                                                [1, 40, 64, 64]                                                0       
        Conv2D-188                                                [[1, 40, 64, 64]]                                                                               [1, 256, 64, 64]                                             10,240     
    SyncBatchNorm-101                                            [[1, 256, 64, 64]]                                                                               [1, 256, 64, 64]                                              1,024     
        ConvBN-36                                                 [[1, 40, 64, 64]]                                                                               [1, 256, 64, 64]                                                0       
HSBottleNeckWithOutReLU-14                                       [[1, 256, 64, 64]]                                                                               [1, 256, 64, 64]                                                0       
      BasicBlock-10                                              [[1, 256, 64, 64]]                                                                               [1, 256, 64, 64]                                                0       
        Branches-2                           [[[1, 64, 256, 256], [1, 128, 128, 128], [1, 256, 64, 64]]]                                      [[1, 64, 256, 256], [1, 128, 128, 128], [1, 256, 64, 64]]                           0       
        Conv2D-189                                              [[1, 128, 128, 128]]                                                                              [1, 40, 128, 128]                                             5,120     
    SyncBatchNorm-102                                            [[1, 40, 128, 128]]                                                                              [1, 40, 128, 128]                                              160      
      ConvBNReLU-37                                             [[1, 128, 128, 128]]                                                                              [1, 40, 128, 128]                                               0       
        Conv2D-190                                               [[1, 8, 128, 128]]                                                                               [1, 8, 128, 128]                                               64       
        Conv2D-191                                               [[1, 12, 128, 128]]                                                                              [1, 12, 128, 128]                                              144      
        Conv2D-192                                               [[1, 14, 128, 128]]                                                                              [1, 14, 128, 128]                                              196      
        Conv2D-193                                               [[1, 15, 128, 128]]                                                                              [1, 15, 128, 128]                                              225      
        HSBlock-30                                               [[1, 40, 128, 128]]                                                                              [1, 40, 128, 128]                                               0       
    SyncBatchNorm-103                                            [[1, 40, 128, 128]]                                                                              [1, 40, 128, 128]                                              160      
         ReLU-45                                                 [[1, 40, 128, 128]]                                                                              [1, 40, 128, 128]                                               0       
     HSBlockBNReLU-30                                            [[1, 40, 128, 128]]                                                                              [1, 40, 128, 128]                                               0       
        Conv2D-194                                               [[1, 40, 128, 128]]                                                                              [1, 64, 128, 128]                                             2,560     
    SyncBatchNorm-104                                            [[1, 64, 128, 128]]                                                                              [1, 64, 128, 128]                                              256      
        ConvBN-37                                                [[1, 40, 128, 128]]                                                                              [1, 64, 128, 128]                                               0       
        Conv2D-195                                              [[1, 128, 128, 128]]                                                                              [1, 64, 128, 128]                                             8,192     
    SyncBatchNorm-105                                            [[1, 64, 128, 128]]                                                                              [1, 64, 128, 128]                                              256      
        ConvBN-38                                               [[1, 128, 128, 128]]                                                                              [1, 64, 128, 128]                                               0       
HSBottleNeckWithOutReLU-15                                      [[1, 128, 128, 128]]                                                                              [1, 64, 128, 128]                                               0       
        Conv2D-196                                               [[1, 256, 64, 64]]                                                                                [1, 40, 64, 64]                                             10,240     
    SyncBatchNorm-106                                             [[1, 40, 64, 64]]                                                                                [1, 40, 64, 64]                                               160      
      ConvBNReLU-38                                              [[1, 256, 64, 64]]                                                                                [1, 40, 64, 64]                                                0       
        Conv2D-197                                                [[1, 8, 64, 64]]                                                                                 [1, 8, 64, 64]                                                64       
        Conv2D-198                                                [[1, 12, 64, 64]]                                                                                [1, 12, 64, 64]                                               144      
        Conv2D-199                                                [[1, 14, 64, 64]]                                                                                [1, 14, 64, 64]                                               196      
        Conv2D-200                                                [[1, 15, 64, 64]]                                                                                [1, 15, 64, 64]                                               225      
        HSBlock-31                                                [[1, 40, 64, 64]]                                                                                [1, 40, 64, 64]                                                0       
    SyncBatchNorm-107                                             [[1, 40, 64, 64]]                                                                                [1, 40, 64, 64]                                               160      
         ReLU-46                                                  [[1, 40, 64, 64]]                                                                                [1, 40, 64, 64]                                                0       
     HSBlockBNReLU-31                                             [[1, 40, 64, 64]]                                                                                [1, 40, 64, 64]                                                0       
        Conv2D-201                                                [[1, 40, 64, 64]]                                                                                [1, 64, 64, 64]                                              2,560     
    SyncBatchNorm-108                                             [[1, 64, 64, 64]]                                                                                [1, 64, 64, 64]                                               256      
        ConvBN-39                                                 [[1, 40, 64, 64]]                                                                                [1, 64, 64, 64]                                                0       
        Conv2D-202                                               [[1, 256, 64, 64]]                                                                                [1, 64, 64, 64]                                             16,384     
    SyncBatchNorm-109                                             [[1, 64, 64, 64]]                                                                                [1, 64, 64, 64]                                               256      
        ConvBN-40                                                [[1, 256, 64, 64]]                                                                                [1, 64, 64, 64]                                                0       
HSBottleNeckWithOutReLU-16                                       [[1, 256, 64, 64]]                                                                                [1, 64, 64, 64]                                                0       
        Conv2D-203                                               [[1, 64, 256, 256]]                                                                             [1, 128, 128, 128]                                            73,728     
    SyncBatchNorm-110                                           [[1, 128, 128, 128]]                                                                             [1, 128, 128, 128]                                              512      
        ConvBN-41                                                [[1, 64, 256, 256]]                                                                             [1, 128, 128, 128]                                               0       
        Conv2D-204                                               [[1, 256, 64, 64]]                                                                                [1, 40, 64, 64]                                             10,240     
    SyncBatchNorm-111                                             [[1, 40, 64, 64]]                                                                                [1, 40, 64, 64]                                               160      
      ConvBNReLU-39                                              [[1, 256, 64, 64]]                                                                                [1, 40, 64, 64]                                                0       
        Conv2D-205                                                [[1, 8, 64, 64]]                                                                                 [1, 8, 64, 64]                                                64       
        Conv2D-206                                                [[1, 12, 64, 64]]                                                                                [1, 12, 64, 64]                                               144      
        Conv2D-207                                                [[1, 14, 64, 64]]                                                                                [1, 14, 64, 64]                                               196      
        Conv2D-208                                                [[1, 15, 64, 64]]                                                                                [1, 15, 64, 64]                                               225      
        HSBlock-32                                                [[1, 40, 64, 64]]                                                                                [1, 40, 64, 64]                                                0       
    SyncBatchNorm-112                                             [[1, 40, 64, 64]]                                                                                [1, 40, 64, 64]                                               160      
         ReLU-47                                                  [[1, 40, 64, 64]]                                                                                [1, 40, 64, 64]                                                0       
     HSBlockBNReLU-32                                             [[1, 40, 64, 64]]                                                                                [1, 40, 64, 64]                                                0       
        Conv2D-209                                                [[1, 40, 64, 64]]                                                                               [1, 128, 64, 64]                                              5,120     
    SyncBatchNorm-113                                            [[1, 128, 64, 64]]                                                                               [1, 128, 64, 64]                                               512      
        ConvBN-42                                                 [[1, 40, 64, 64]]                                                                               [1, 128, 64, 64]                                                0       
        Conv2D-210                                               [[1, 256, 64, 64]]                                                                               [1, 128, 64, 64]                                             32,768     
    SyncBatchNorm-114                                            [[1, 128, 64, 64]]                                                                               [1, 128, 64, 64]                                               512      
        ConvBN-43                                                [[1, 256, 64, 64]]                                                                               [1, 128, 64, 64]                                                0       
HSBottleNeckWithOutReLU-17                                       [[1, 256, 64, 64]]                                                                               [1, 128, 64, 64]                                                0       
        Conv2D-211                                               [[1, 64, 256, 256]]                                                                              [1, 64, 128, 128]                                            36,864     
    SyncBatchNorm-115                                            [[1, 64, 128, 128]]                                                                              [1, 64, 128, 128]                                              256      
      ConvBNReLU-40                                              [[1, 64, 256, 256]]                                                                              [1, 64, 128, 128]                                               0       
        Conv2D-212                                               [[1, 64, 128, 128]]                                                                              [1, 256, 64, 64]                                             147,456    
    SyncBatchNorm-116                                            [[1, 256, 64, 64]]                                                                               [1, 256, 64, 64]                                              1,024     
        ConvBN-44                                                [[1, 64, 128, 128]]                                                                              [1, 256, 64, 64]                                                0       
        Conv2D-213                                              [[1, 128, 128, 128]]                                                                              [1, 256, 64, 64]                                             294,912    
    SyncBatchNorm-117                                            [[1, 256, 64, 64]]                                                                               [1, 256, 64, 64]                                              1,024     
        ConvBN-45                                               [[1, 128, 128, 128]]                                                                              [1, 256, 64, 64]                                                0       
       FuseLayers-2                          [[[1, 64, 256, 256], [1, 128, 128, 128], [1, 256, 64, 64]]]                                      [[1, 64, 256, 256], [1, 128, 128, 128], [1, 256, 64, 64]]                           0       
  HighResolutionModule-2                     [[[1, 64, 256, 256], [1, 128, 128, 128], [1, 256, 64, 64]]]                                      [[1, 64, 256, 256], [1, 128, 128, 128], [1, 256, 64, 64]]                           0       
        Conv2D-214                                               [[1, 64, 256, 256]]                                                                              [1, 40, 256, 256]                                             2,560     
    SyncBatchNorm-118                                            [[1, 40, 256, 256]]                                                                              [1, 40, 256, 256]                                              160      
      ConvBNReLU-41                                              [[1, 64, 256, 256]]                                                                              [1, 40, 256, 256]                                               0       
        Conv2D-215                                               [[1, 8, 256, 256]]                                                                               [1, 8, 256, 256]                                               576      
        Conv2D-216                                               [[1, 12, 256, 256]]                                                                              [1, 12, 256, 256]                                             1,296     
        Conv2D-217                                               [[1, 14, 256, 256]]                                                                              [1, 14, 256, 256]                                             1,764     
        Conv2D-218                                               [[1, 15, 256, 256]]                                                                              [1, 15, 256, 256]                                             2,025     
        HSBlock-33                                               [[1, 40, 256, 256]]                                                                              [1, 40, 256, 256]                                               0       
    SyncBatchNorm-119                                            [[1, 40, 256, 256]]                                                                              [1, 40, 256, 256]                                              160      
         ReLU-48                                                 [[1, 40, 256, 256]]                                                                              [1, 40, 256, 256]                                               0       
     HSBlockBNReLU-33                                            [[1, 40, 256, 256]]                                                                              [1, 40, 256, 256]                                               0       
        Conv2D-219                                               [[1, 40, 256, 256]]                                                                              [1, 64, 256, 256]                                             2,560     
    SyncBatchNorm-120                                            [[1, 64, 256, 256]]                                                                              [1, 64, 256, 256]                                              256      
        ConvBN-46                                                [[1, 40, 256, 256]]                                                                              [1, 64, 256, 256]                                               0       
         ReLU-49                                                 [[1, 64, 256, 256]]                                                                              [1, 64, 256, 256]                                               0       
     HSBottleNeck-16                                             [[1, 64, 256, 256]]                                                                              [1, 64, 256, 256]                                               0       
        Conv2D-220                                               [[1, 64, 256, 256]]                                                                              [1, 40, 256, 256]                                             2,560     
    SyncBatchNorm-121                                            [[1, 40, 256, 256]]                                                                              [1, 40, 256, 256]                                              160      
      ConvBNReLU-42                                              [[1, 64, 256, 256]]                                                                              [1, 40, 256, 256]                                               0       
        Conv2D-221                                               [[1, 8, 256, 256]]                                                                               [1, 8, 256, 256]                                               576      
        Conv2D-222                                               [[1, 12, 256, 256]]                                                                              [1, 12, 256, 256]                                             1,296     
        Conv2D-223                                               [[1, 14, 256, 256]]                                                                              [1, 14, 256, 256]                                             1,764     
        Conv2D-224                                               [[1, 15, 256, 256]]                                                                              [1, 15, 256, 256]                                             2,025     
        HSBlock-34                                               [[1, 40, 256, 256]]                                                                              [1, 40, 256, 256]                                               0       
    SyncBatchNorm-122                                            [[1, 40, 256, 256]]                                                                              [1, 40, 256, 256]                                              160      
         ReLU-50                                                 [[1, 40, 256, 256]]                                                                              [1, 40, 256, 256]                                               0       
     HSBlockBNReLU-34                                            [[1, 40, 256, 256]]                                                                              [1, 40, 256, 256]                                               0       
        Conv2D-225                                               [[1, 40, 256, 256]]                                                                              [1, 64, 256, 256]                                             2,560     
    SyncBatchNorm-123                                            [[1, 64, 256, 256]]                                                                              [1, 64, 256, 256]                                              256      
        ConvBN-47                                                [[1, 40, 256, 256]]                                                                              [1, 64, 256, 256]                                               0       
HSBottleNeckWithOutReLU-18                                       [[1, 64, 256, 256]]                                                                              [1, 64, 256, 256]                                               0       
      BasicBlock-11                                              [[1, 64, 256, 256]]                                                                              [1, 64, 256, 256]                                               0       
        Conv2D-226                                               [[1, 64, 256, 256]]                                                                              [1, 40, 256, 256]                                             2,560     
    SyncBatchNorm-124                                            [[1, 40, 256, 256]]                                                                              [1, 40, 256, 256]                                              160      
      ConvBNReLU-43                                              [[1, 64, 256, 256]]                                                                              [1, 40, 256, 256]                                               0       
        Conv2D-227                                               [[1, 8, 256, 256]]                                                                               [1, 8, 256, 256]                                               576      
        Conv2D-228                                               [[1, 12, 256, 256]]                                                                              [1, 12, 256, 256]                                             1,296     
        Conv2D-229                                               [[1, 14, 256, 256]]                                                                              [1, 14, 256, 256]                                             1,764     
        Conv2D-230                                               [[1, 15, 256, 256]]                                                                              [1, 15, 256, 256]                                             2,025     
        HSBlock-35                                               [[1, 40, 256, 256]]                                                                              [1, 40, 256, 256]                                               0       
    SyncBatchNorm-125                                            [[1, 40, 256, 256]]                                                                              [1, 40, 256, 256]                                              160      
         ReLU-51                                                 [[1, 40, 256, 256]]                                                                              [1, 40, 256, 256]                                               0       
     HSBlockBNReLU-35                                            [[1, 40, 256, 256]]                                                                              [1, 40, 256, 256]                                               0       
        Conv2D-231                                               [[1, 40, 256, 256]]                                                                              [1, 64, 256, 256]                                             2,560     
    SyncBatchNorm-126                                            [[1, 64, 256, 256]]                                                                              [1, 64, 256, 256]                                              256      
        ConvBN-48                                                [[1, 40, 256, 256]]                                                                              [1, 64, 256, 256]                                               0       
         ReLU-52                                                 [[1, 64, 256, 256]]                                                                              [1, 64, 256, 256]                                               0       
     HSBottleNeck-17                                             [[1, 64, 256, 256]]                                                                              [1, 64, 256, 256]                                               0       
        Conv2D-232                                               [[1, 64, 256, 256]]                                                                              [1, 40, 256, 256]                                             2,560     
    SyncBatchNorm-127                                            [[1, 40, 256, 256]]                                                                              [1, 40, 256, 256]                                              160      
      ConvBNReLU-44                                              [[1, 64, 256, 256]]                                                                              [1, 40, 256, 256]                                               0       
        Conv2D-233                                               [[1, 8, 256, 256]]                                                                               [1, 8, 256, 256]                                               576      
        Conv2D-234                                               [[1, 12, 256, 256]]                                                                              [1, 12, 256, 256]                                             1,296     
        Conv2D-235                                               [[1, 14, 256, 256]]                                                                              [1, 14, 256, 256]                                             1,764     
        Conv2D-236                                               [[1, 15, 256, 256]]                                                                              [1, 15, 256, 256]                                             2,025     
        HSBlock-36                                               [[1, 40, 256, 256]]                                                                              [1, 40, 256, 256]                                               0       
    SyncBatchNorm-128                                            [[1, 40, 256, 256]]                                                                              [1, 40, 256, 256]                                              160      
         ReLU-53                                                 [[1, 40, 256, 256]]                                                                              [1, 40, 256, 256]                                               0       
     HSBlockBNReLU-36                                            [[1, 40, 256, 256]]                                                                              [1, 40, 256, 256]                                               0       
        Conv2D-237                                               [[1, 40, 256, 256]]                                                                              [1, 64, 256, 256]                                             2,560     
    SyncBatchNorm-129                                            [[1, 64, 256, 256]]                                                                              [1, 64, 256, 256]                                              256      
        ConvBN-49                                                [[1, 40, 256, 256]]                                                                              [1, 64, 256, 256]                                               0       
HSBottleNeckWithOutReLU-19                                       [[1, 64, 256, 256]]                                                                              [1, 64, 256, 256]                                               0       
      BasicBlock-12                                              [[1, 64, 256, 256]]                                                                              [1, 64, 256, 256]                                               0       
        Conv2D-238                                              [[1, 128, 128, 128]]                                                                              [1, 40, 128, 128]                                             5,120     
…
    SyncBatchNorm-481                                             [[1, 40, 32, 32]]                                                                                [1, 40, 32, 32]                                               160      
      ConvBNReLU-156                                             [[1, 512, 32, 32]]                                                                                [1, 40, 32, 32]                                                0       
        Conv2D-887                                                [[1, 8, 32, 32]]                                                                                 [1, 8, 32, 32]                                                576      
        Conv2D-888                                                [[1, 12, 32, 32]]                                                                                [1, 12, 32, 32]                                              1,296     
        Conv2D-889                                                [[1, 14, 32, 32]]                                                                                [1, 14, 32, 32]                                              1,764     
        Conv2D-890                                                [[1, 15, 32, 32]]                                                                                [1, 15, 32, 32]                                              2,025     
       HSBlock-136                                                [[1, 40, 32, 32]]                                                                                [1, 40, 32, 32]                                                0       
    SyncBatchNorm-482                                             [[1, 40, 32, 32]]                                                                                [1, 40, 32, 32]                                               160      
         ReLU-192                                                 [[1, 40, 32, 32]]                                                                                [1, 40, 32, 32]                                                0       
    HSBlockBNReLU-136                                             [[1, 40, 32, 32]]                                                                                [1, 40, 32, 32]                                                0       
        Conv2D-891                                                [[1, 40, 32, 32]]                                                                               [1, 512, 32, 32]                                             20,480     
    SyncBatchNorm-483                                            [[1, 512, 32, 32]]                                                                               [1, 512, 32, 32]                                              2,048     
        ConvBN-191                                                [[1, 40, 32, 32]]                                                                               [1, 512, 32, 32]                                                0       
         ReLU-193                                                [[1, 512, 32, 32]]                                                                               [1, 512, 32, 32]                                                0       
     HSBottleNeck-57                                             [[1, 512, 32, 32]]                                                                               [1, 512, 32, 32]                                                0       
        Conv2D-892                                               [[1, 512, 32, 32]]                                                                                [1, 40, 32, 32]                                             20,480     
    SyncBatchNorm-484                                             [[1, 40, 32, 32]]                                                                                [1, 40, 32, 32]                                               160      
      ConvBNReLU-157                                             [[1, 512, 32, 32]]                                                                                [1, 40, 32, 32]                                                0       
        Conv2D-893                                                [[1, 8, 32, 32]]                                                                                 [1, 8, 32, 32]                                                576      
        Conv2D-894                                                [[1, 12, 32, 32]]                                                                                [1, 12, 32, 32]                                              1,296     
        Conv2D-895                                                [[1, 14, 32, 32]]                                                                                [1, 14, 32, 32]                                              1,764     
        Conv2D-896                                                [[1, 15, 32, 32]]                                                                                [1, 15, 32, 32]                                              2,025     
       HSBlock-137                                                [[1, 40, 32, 32]]                                                                                [1, 40, 32, 32]                                                0       
    SyncBatchNorm-485                                             [[1, 40, 32, 32]]                                                                                [1, 40, 32, 32]                                               160      
         ReLU-194                                                 [[1, 40, 32, 32]]                                                                                [1, 40, 32, 32]                                                0       
    HSBlockBNReLU-137                                             [[1, 40, 32, 32]]                                                                                [1, 40, 32, 32]                                                0       
        Conv2D-897                                                [[1, 40, 32, 32]]                                                                               [1, 512, 32, 32]                                             20,480     
    SyncBatchNorm-486                                            [[1, 512, 32, 32]]                                                                               [1, 512, 32, 32]                                              2,048     
        ConvBN-192                                                [[1, 40, 32, 32]]                                                                               [1, 512, 32, 32]                                                0       
HSBottleNeckWithOutReLU-80                                       [[1, 512, 32, 32]]                                                                               [1, 512, 32, 32]                                                0       
      BasicBlock-52                                              [[1, 512, 32, 32]]                                                                               [1, 512, 32, 32]                                                0       
        Branches-8                  [[[1, 64, 256, 256], [1, 128, 128, 128], [1, 256, 64, 64], [1, 512, 32, 32]]]                    [[1, 64, 256, 256], [1, 128, 128, 128], [1, 256, 64, 64], [1, 512, 32, 32]]                  0       
        Conv2D-898                                              [[1, 128, 128, 128]]                                                                              [1, 40, 128, 128]                                             5,120     
    SyncBatchNorm-487                                            [[1, 40, 128, 128]]                                                                              [1, 40, 128, 128]                                              160      
      ConvBNReLU-158                                            [[1, 128, 128, 128]]                                                                              [1, 40, 128, 128]                                               0       
        Conv2D-899                                               [[1, 8, 128, 128]]                                                                               [1, 8, 128, 128]                                               64       
        Conv2D-900                                               [[1, 12, 128, 128]]                                                                              [1, 12, 128, 128]                                              144      
        Conv2D-901                                               [[1, 14, 128, 128]]                                                                              [1, 14, 128, 128]                                              196      
        Conv2D-902                                               [[1, 15, 128, 128]]                                                                              [1, 15, 128, 128]                                              225      
       HSBlock-138                                               [[1, 40, 128, 128]]                                                                              [1, 40, 128, 128]                                               0       
    SyncBatchNorm-488                                            [[1, 40, 128, 128]]                                                                              [1, 40, 128, 128]                                              160      
         ReLU-195                                                [[1, 40, 128, 128]]                                                                              [1, 40, 128, 128]                                               0       
    HSBlockBNReLU-138                                            [[1, 40, 128, 128]]                                                                              [1, 40, 128, 128]                                               0       
        Conv2D-903                                               [[1, 40, 128, 128]]                                                                              [1, 64, 128, 128]                                             2,560     
    SyncBatchNorm-489                                            [[1, 64, 128, 128]]                                                                              [1, 64, 128, 128]                                              256      
        ConvBN-193                                               [[1, 40, 128, 128]]                                                                              [1, 64, 128, 128]                                               0       
        Conv2D-904                                              [[1, 128, 128, 128]]                                                                              [1, 64, 128, 128]                                             8,192     
    SyncBatchNorm-490                                            [[1, 64, 128, 128]]                                                                              [1, 64, 128, 128]                                              256      
        ConvBN-194                                              [[1, 128, 128, 128]]                                                                              [1, 64, 128, 128]                                               0       
HSBottleNeckWithOutReLU-81                                      [[1, 128, 128, 128]]                                                                              [1, 64, 128, 128]                                               0       
        Conv2D-905                                               [[1, 256, 64, 64]]                                                                                [1, 40, 64, 64]                                             10,240     
    SyncBatchNorm-491                                             [[1, 40, 64, 64]]                                                                                [1, 40, 64, 64]                                               160      
      ConvBNReLU-159                                             [[1, 256, 64, 64]]                                                                                [1, 40, 64, 64]                                                0       
        Conv2D-906                                                [[1, 8, 64, 64]]                                                                                 [1, 8, 64, 64]                                                64       
        Conv2D-907                                                [[1, 12, 64, 64]]                                                                                [1, 12, 64, 64]                                               144      
        Conv2D-908                                                [[1, 14, 64, 64]]                                                                                [1, 14, 64, 64]                                               196      
        Conv2D-909                                                [[1, 15, 64, 64]]                                                                                [1, 15, 64, 64]                                               225      
       HSBlock-139                                                [[1, 40, 64, 64]]                                                                                [1, 40, 64, 64]                                                0       
    SyncBatchNorm-492                                             [[1, 40, 64, 64]]                                                                                [1, 40, 64, 64]                                               160      
         ReLU-196                                                 [[1, 40, 64, 64]]                                                                                [1, 40, 64, 64]                                                0       
    HSBlockBNReLU-139                                             [[1, 40, 64, 64]]                                                                                [1, 40, 64, 64]                                                0       
        Conv2D-910                                                [[1, 40, 64, 64]]                                                                                [1, 64, 64, 64]                                              2,560     
    SyncBatchNorm-493                                             [[1, 64, 64, 64]]                                                                                [1, 64, 64, 64]                                               256      
        ConvBN-195                                                [[1, 40, 64, 64]]                                                                                [1, 64, 64, 64]                                                0       
        Conv2D-911                                               [[1, 256, 64, 64]]                                                                                [1, 64, 64, 64]                                             16,384     
    SyncBatchNorm-494                                             [[1, 64, 64, 64]]                                                                                [1, 64, 64, 64]                                               256      
        ConvBN-196                                               [[1, 256, 64, 64]]                                                                                [1, 64, 64, 64]                                                0       
HSBottleNeckWithOutReLU-82                                       [[1, 256, 64, 64]]                                                                                [1, 64, 64, 64]                                                0       
        Conv2D-912                                               [[1, 512, 32, 32]]                                                                                [1, 40, 32, 32]                                             20,480     
    SyncBatchNorm-495                                             [[1, 40, 32, 32]]                                                                                [1, 40, 32, 32]                                               160      
      ConvBNReLU-160                                             [[1, 512, 32, 32]]                                                                                [1, 40, 32, 32]                                                0       
        Conv2D-913                                                [[1, 8, 32, 32]]                                                                                 [1, 8, 32, 32]                                                64       
        Conv2D-914                                                [[1, 12, 32, 32]]                                                                                [1, 12, 32, 32]                                               144      
        Conv2D-915                                                [[1, 14, 32, 32]]                                                                                [1, 14, 32, 32]                                               196      
        Conv2D-916                                                [[1, 15, 32, 32]]                                                                                [1, 15, 32, 32]                                               225      
       HSBlock-140                                                [[1, 40, 32, 32]]                                                                                [1, 40, 32, 32]                                                0       
    SyncBatchNorm-496                                             [[1, 40, 32, 32]]                                                                                [1, 40, 32, 32]                                               160      
         ReLU-197                                                 [[1, 40, 32, 32]]                                                                                [1, 40, 32, 32]                                                0       
    HSBlockBNReLU-140                                             [[1, 40, 32, 32]]                                                                                [1, 40, 32, 32]                                                0       
        Conv2D-917                                                [[1, 40, 32, 32]]                                                                                [1, 64, 32, 32]                                              2,560     
    SyncBatchNorm-497                                             [[1, 64, 32, 32]]                                                                                [1, 64, 32, 32]                                               256      
        ConvBN-197                                                [[1, 40, 32, 32]]                                                                                [1, 64, 32, 32]                                                0       
        Conv2D-918                                               [[1, 512, 32, 32]]                                                                                [1, 64, 32, 32]                                             32,768     
    SyncBatchNorm-498                                             [[1, 64, 32, 32]]                                                                                [1, 64, 32, 32]                                               256      
        ConvBN-198                                               [[1, 512, 32, 32]]                                                                                [1, 64, 32, 32]                                                0       
HSBottleNeckWithOutReLU-83                                       [[1, 512, 32, 32]]                                                                                [1, 64, 32, 32]                                                0       
        Conv2D-919                                               [[1, 64, 256, 256]]                                                                             [1, 128, 128, 128]                                            73,728     
    SyncBatchNorm-499                                           [[1, 128, 128, 128]]                                                                             [1, 128, 128, 128]                                              512      
        ConvBN-199                                               [[1, 64, 256, 256]]                                                                             [1, 128, 128, 128]                                               0       
        Conv2D-920                                               [[1, 256, 64, 64]]                                                                                [1, 40, 64, 64]                                             10,240     
    SyncBatchNorm-500                                             [[1, 40, 64, 64]]                                                                                [1, 40, 64, 64]                                               160      
      ConvBNReLU-161                                             [[1, 256, 64, 64]]                                                                                [1, 40, 64, 64]                                                0       
        Conv2D-921                                                [[1, 8, 64, 64]]                                                                                 [1, 8, 64, 64]                                                64       
        Conv2D-922                                                [[1, 12, 64, 64]]                                                                                [1, 12, 64, 64]                                               144      
        Conv2D-923                                                [[1, 14, 64, 64]]                                                                                [1, 14, 64, 64]                                               196      
        Conv2D-924                                                [[1, 15, 64, 64]]                                                                                [1, 15, 64, 64]                                               225      
       HSBlock-141                                                [[1, 40, 64, 64]]                                                                                [1, 40, 64, 64]                                                0       
    SyncBatchNorm-501                                             [[1, 40, 64, 64]]                                                                                [1, 40, 64, 64]                                               160      
         ReLU-198                                                 [[1, 40, 64, 64]]                                                                                [1, 40, 64, 64]                                                0       
    HSBlockBNReLU-141                                             [[1, 40, 64, 64]]                                                                                [1, 40, 64, 64]                                                0       
        Conv2D-925                                                [[1, 40, 64, 64]]                                                                               [1, 128, 64, 64]                                              5,120     
    SyncBatchNorm-502                                            [[1, 128, 64, 64]]                                                                               [1, 128, 64, 64]                                               512      
        ConvBN-200                                                [[1, 40, 64, 64]]                                                                               [1, 128, 64, 64]                                                0       
        Conv2D-926                                               [[1, 256, 64, 64]]                                                                               [1, 128, 64, 64]                                             32,768     
    SyncBatchNorm-503                                            [[1, 128, 64, 64]]                                                                               [1, 128, 64, 64]                                               512      
        ConvBN-201                                               [[1, 256, 64, 64]]                                                                               [1, 128, 64, 64]                                                0       
HSBottleNeckWithOutReLU-84                                       [[1, 256, 64, 64]]                                                                               [1, 128, 64, 64]                                                0       
        Conv2D-927                                               [[1, 512, 32, 32]]                                                                                [1, 40, 32, 32]                                             20,480     
    SyncBatchNorm-504                                             [[1, 40, 32, 32]]                                                                                [1, 40, 32, 32]                                               160      
      ConvBNReLU-162                                             [[1, 512, 32, 32]]                                                                                [1, 40, 32, 32]                                                0       
        Conv2D-928                                                [[1, 8, 32, 32]]                                                                                 [1, 8, 32, 32]                                                64       
        Conv2D-929                                                [[1, 12, 32, 32]]                                                                                [1, 12, 32, 32]                                               144      
        Conv2D-930                                                [[1, 14, 32, 32]]                                                                                [1, 14, 32, 32]                                               196      
        Conv2D-931                                                [[1, 15, 32, 32]]                                                                                [1, 15, 32, 32]                                               225      
       HSBlock-142                                                [[1, 40, 32, 32]]                                                                                [1, 40, 32, 32]                                                0       
    SyncBatchNorm-505                                             [[1, 40, 32, 32]]                                                                                [1, 40, 32, 32]                                               160      
         ReLU-199                                                 [[1, 40, 32, 32]]                                                                                [1, 40, 32, 32]                                                0       
    HSBlockBNReLU-142                                             [[1, 40, 32, 32]]                                                                                [1, 40, 32, 32]                                                0       
        Conv2D-932                                                [[1, 40, 32, 32]]                                                                               [1, 128, 32, 32]                                              5,120     
    SyncBatchNorm-506                                            [[1, 128, 32, 32]]                                                                               [1, 128, 32, 32]                                               512      
        ConvBN-202                                                [[1, 40, 32, 32]]                                                                               [1, 128, 32, 32]                                                0       
        Conv2D-933                                               [[1, 512, 32, 32]]                                                                               [1, 128, 32, 32]                                             65,536     
    SyncBatchNorm-507                                            [[1, 128, 32, 32]]                                                                               [1, 128, 32, 32]                                               512      
        ConvBN-203                                               [[1, 512, 32, 32]]                                                                               [1, 128, 32, 32]                                                0       
HSBottleNeckWithOutReLU-85                                       [[1, 512, 32, 32]]                                                                               [1, 128, 32, 32]                                                0       
        Conv2D-934                                               [[1, 64, 256, 256]]                                                                              [1, 64, 128, 128]                                            36,864     
    SyncBatchNorm-508                                            [[1, 64, 128, 128]]                                                                              [1, 64, 128, 128]                                              256      
      ConvBNReLU-163                                             [[1, 64, 256, 256]]                                                                              [1, 64, 128, 128]                                               0       
        Conv2D-935                                               [[1, 64, 128, 128]]                                                                              [1, 256, 64, 64]                                             147,456    
    SyncBatchNorm-509                                            [[1, 256, 64, 64]]                                                                               [1, 256, 64, 64]                                              1,024     
        ConvBN-204                                               [[1, 64, 128, 128]]                                                                              [1, 256, 64, 64]                                                0       
        Conv2D-936                                              [[1, 128, 128, 128]]                                                                              [1, 256, 64, 64]                                             294,912    
    SyncBatchNorm-510                                            [[1, 256, 64, 64]]                                                                               [1, 256, 64, 64]                                              1,024     
        ConvBN-205                                              [[1, 128, 128, 128]]                                                                              [1, 256, 64, 64]                                                0       
        Conv2D-937                                               [[1, 512, 32, 32]]                                                                                [1, 40, 32, 32]                                             20,480     
    SyncBatchNorm-511                                             [[1, 40, 32, 32]]                                                                                [1, 40, 32, 32]                                               160      
      ConvBNReLU-164                                             [[1, 512, 32, 32]]                                                                                [1, 40, 32, 32]                                                0       
        Conv2D-938                                                [[1, 8, 32, 32]]                                                                                 [1, 8, 32, 32]                                                64       
        Conv2D-939                                                [[1, 12, 32, 32]]                                                                                [1, 12, 32, 32]                                               144      
        Conv2D-940                                                [[1, 14, 32, 32]]                                                                                [1, 14, 32, 32]                                               196      
        Conv2D-941                                                [[1, 15, 32, 32]]                                                                                [1, 15, 32, 32]                                               225      
       HSBlock-143                                                [[1, 40, 32, 32]]                                                                                [1, 40, 32, 32]                                                0       
    SyncBatchNorm-512                                             [[1, 40, 32, 32]]                                                                                [1, 40, 32, 32]                                               160      
         ReLU-200                                                 [[1, 40, 32, 32]]                                                                                [1, 40, 32, 32]                                                0       
    HSBlockBNReLU-143                                             [[1, 40, 32, 32]]                                                                                [1, 40, 32, 32]                                                0       
        Conv2D-942                                                [[1, 40, 32, 32]]                                                                               [1, 256, 32, 32]                                             10,240     
    SyncBatchNorm-513                                            [[1, 256, 32, 32]]                                                                               [1, 256, 32, 32]                                              1,024     
        ConvBN-206                                                [[1, 40, 32, 32]]                                                                               [1, 256, 32, 32]                                                0       
        Conv2D-943                                               [[1, 512, 32, 32]]                                                                               [1, 256, 32, 32]                                             131,072    
    SyncBatchNorm-514                                            [[1, 256, 32, 32]]                                                                               [1, 256, 32, 32]                                              1,024     
        ConvBN-207                                               [[1, 512, 32, 32]]                                                                               [1, 256, 32, 32]                                                0       
HSBottleNeckWithOutReLU-86                                       [[1, 512, 32, 32]]                                                                               [1, 256, 32, 32]                                                0       
        Conv2D-944                                               [[1, 64, 256, 256]]                                                                              [1, 64, 128, 128]                                            36,864     
    SyncBatchNorm-515                                            [[1, 64, 128, 128]]                                                                              [1, 64, 128, 128]                                              256      
      ConvBNReLU-165                                             [[1, 64, 256, 256]]                                                                              [1, 64, 128, 128]                                               0       
        Conv2D-945                                               [[1, 64, 128, 128]]                                                                               [1, 64, 64, 64]                                             36,864     
    SyncBatchNorm-516                                             [[1, 64, 64, 64]]                                                                                [1, 64, 64, 64]                                               256      
      ConvBNReLU-166                                             [[1, 64, 128, 128]]                                                                               [1, 64, 64, 64]                                                0       
        Conv2D-946                                                [[1, 64, 64, 64]]                                                                               [1, 512, 32, 32]                                             294,912    
    SyncBatchNorm-517                                            [[1, 512, 32, 32]]                                                                               [1, 512, 32, 32]                                              2,048     
        ConvBN-208                                                [[1, 64, 64, 64]]                                                                               [1, 512, 32, 32]                                                0       
        Conv2D-947                                              [[1, 128, 128, 128]]                                                                              [1, 128, 64, 64]                                             147,456    
    SyncBatchNorm-518                                            [[1, 128, 64, 64]]                                                                               [1, 128, 64, 64]                                               512      
      ConvBNReLU-167                                            [[1, 128, 128, 128]]                                                                              [1, 128, 64, 64]                                                0       
        Conv2D-948                                               [[1, 128, 64, 64]]                                                                               [1, 512, 32, 32]                                             589,824    
    SyncBatchNorm-519                                            [[1, 512, 32, 32]]                                                                               [1, 512, 32, 32]                                              2,048     
        ConvBN-209                                               [[1, 128, 64, 64]]                                                                               [1, 512, 32, 32]                                                0       
        Conv2D-949                                               [[1, 256, 64, 64]]                                                                               [1, 512, 32, 32]                                            1,179,648   
    SyncBatchNorm-520                                            [[1, 512, 32, 32]]                                                                               [1, 512, 32, 32]                                              2,048     
        ConvBN-210                                               [[1, 256, 64, 64]]                                                                               [1, 512, 32, 32]                                                0       
       FuseLayers-8                 [[[1, 64, 256, 256], [1, 128, 128, 128], [1, 256, 64, 64], [1, 512, 32, 32]]]                    [[1, 64, 256, 256], [1, 128, 128, 128], [1, 256, 64, 64], [1, 512, 32, 32]]                  0       
  HighResolutionModule-8            [[[1, 64, 256, 256], [1, 128, 128, 128], [1, 256, 64, 64], [1, 512, 32, 32]]]                    [[1, 64, 256, 256], [1, 128, 128, 128], [1, 256, 64, 64], [1, 512, 32, 32]]                  0       
         Stage-3                    [[[1, 64, 256, 256], [1, 128, 128, 128], [1, 256, 64, 64], [1, 512, 32, 32]]]                    [[1, 64, 256, 256], [1, 128, 128, 128], [1, 256, 64, 64], [1, 512, 32, 32]]                  0       
         Conv2D-3                                                [[1, 512, 32, 32]]                                                                               [1, 512, 16, 16]                                            2,359,296   
     SyncBatchNorm-3                                             [[1, 512, 16, 16]]                                                                               [1, 512, 16, 16]                                              2,048     
       ConvBNReLU-3                                              [[1, 512, 32, 32]]                                                                               [1, 512, 16, 16]                                                0       
        Encoder-1                                                [[1, 3, 256, 256]]                                        [[1, 512, 16, 16], [[1, 64, 256, 256], [1, 128, 128, 128], [1, 256, 64, 64], [1, 512, 32, 32]]]        0       
        Upsample-1                                               [[1, 512, 16, 16]]                                                                               [1, 512, 32, 32]                                                0       
        Conv2D-950                                               [[1, 1024, 32, 32]]                                                                              [1, 256, 32, 32]                                            2,359,552   
    SyncBatchNorm-521                                            [[1, 256, 32, 32]]                                                                               [1, 256, 32, 32]                                              1,024     
      ConvBNReLU-168                                             [[1, 1024, 32, 32]]                                                                              [1, 256, 32, 32]                                                0       
        Conv2D-951                                               [[1, 256, 32, 32]]                                                                               [1, 256, 32, 32]                                             590,080    
    SyncBatchNorm-522                                            [[1, 256, 32, 32]]                                                                               [1, 256, 32, 32]                                              1,024     
      ConvBNReLU-169                                             [[1, 256, 32, 32]]                                                                               [1, 256, 32, 32]                                                0       
       UpSampling-1                                     [[1, 512, 16, 16], [1, 512, 32, 32]]                                                                      [1, 256, 32, 32]                                                0       
        Upsample-2                                               [[1, 256, 32, 32]]                                                                               [1, 256, 64, 64]                                                0       
        Conv2D-952                                               [[1, 512, 64, 64]]                                                                               [1, 128, 64, 64]                                             589,952    
    SyncBatchNorm-523                                            [[1, 128, 64, 64]]                                                                               [1, 128, 64, 64]                                               512      
      ConvBNReLU-170                                             [[1, 512, 64, 64]]                                                                               [1, 128, 64, 64]                                                0       
        Conv2D-953                                               [[1, 128, 64, 64]]                                                                               [1, 128, 64, 64]                                             147,584    
    SyncBatchNorm-524                                            [[1, 128, 64, 64]]                                                                               [1, 128, 64, 64]                                               512      
      ConvBNReLU-171                                             [[1, 128, 64, 64]]                                                                               [1, 128, 64, 64]                                                0       
       UpSampling-2                                     [[1, 256, 32, 32], [1, 256, 64, 64]]                                                                      [1, 128, 64, 64]                                                0       
        Upsample-3                                               [[1, 128, 64, 64]]                                                                              [1, 128, 128, 128]                                               0       
        Conv2D-954                                              [[1, 256, 128, 128]]                                                                              [1, 64, 128, 128]                                            147,520    
    SyncBatchNorm-525                                            [[1, 64, 128, 128]]                                                                              [1, 64, 128, 128]                                              256      
      ConvBNReLU-172                                            [[1, 256, 128, 128]]                                                                              [1, 64, 128, 128]                                               0       
        Conv2D-955                                               [[1, 64, 128, 128]]                                                                              [1, 64, 128, 128]                                            36,928     
    SyncBatchNorm-526                                            [[1, 64, 128, 128]]                                                                              [1, 64, 128, 128]                                              256      
      ConvBNReLU-173                                             [[1, 64, 128, 128]]                                                                              [1, 64, 128, 128]                                               0       
       UpSampling-3                                    [[1, 128, 64, 64], [1, 128, 128, 128]]                                                                     [1, 64, 128, 128]                                               0       
        Upsample-4                                               [[1, 64, 128, 128]]                                                                              [1, 64, 256, 256]                                               0       
        Conv2D-956                                              [[1, 128, 256, 256]]                                                                              [1, 64, 256, 256]                                            73,792     
    SyncBatchNorm-527                                            [[1, 64, 256, 256]]                                                                              [1, 64, 256, 256]                                              256      
      ConvBNReLU-174                                            [[1, 128, 256, 256]]                                                                              [1, 64, 256, 256]                                               0       
        Conv2D-957                                               [[1, 64, 256, 256]]                                                                              [1, 64, 256, 256]                                            36,928     
    SyncBatchNorm-528                                            [[1, 64, 256, 256]]                                                                              [1, 64, 256, 256]                                              256      
      ConvBNReLU-175                                             [[1, 64, 256, 256]]                                                                              [1, 64, 256, 256]                                               0       
       UpSampling-4                                    [[1, 64, 128, 128], [1, 64, 256, 256]]                                                                     [1, 64, 256, 256]                                               0       
        Decoder-1          [[1, 512, 16, 16], [[1, 64, 256, 256], [1, 128, 128, 128], [1, 256, 64, 64], [1, 512, 32, 32]]]                                        [1, 64, 256, 256]                                               0       
        Conv2D-958                                               [[1, 64, 256, 256]]                                                                              [1, 2, 256, 256]                                              1,154     
============================================================================================================================================================================================================================================
Total params: 23,101,589
Trainable params: 22,892,501
Non-trainable params: 209,088
--------------------------------------------------------------------------------------------------------------------------------------------------------------------------------------------------------------------------------------------
…
