…
  Layer (type)                                             Input Shape                                                                                    Output Shape                                               Param #    
==================================================================================================================================================================================================================================
    Conv2D-1                                           [[1, 3, 256, 256]]                                                                               [1, 40, 256, 256]                                              160      
SyncBatchNorm-1                                        [[1, 40, 256, 256]]                                                                              [1, 40, 256, 256]                                              160      
  ConvBNReLU-1                                         [[1, 3, 256, 256]]                                                                               [1, 40, 256, 256]                                               0       
    Conv2D-2                                           [[1, 8, 256, 256]]                                                                               [1, 8, 256, 256]                                               584      
    Conv2D-3                                           [[1, 12, 256, 256]]                                                                              [1, 12, 256, 256]                                             1,308     
    Conv2D-4                                           [[1, 14, 256, 256]]                                                                              [1, 14, 256, 256]                                             1,778     
    Conv2D-5                                           [[1, 15, 256, 256]]                                                                              [1, 15, 256, 256]                                             2,040     
   HSBlock-1                                           [[1, 40, 256, 256]]                                                                              [1, 40, 256, 256]                                               0       
SyncBatchNorm-2                                        [[1, 40, 256, 256]]                                                                              [1, 40, 256, 256]                                              160      
HSBlockBNReLU-1                                        [[1, 40, 256, 256]]                                                                              [1, 40, 256, 256]                                               0       
    Conv2D-6                                           [[1, 40, 256, 256]]                                                                              [1, 64, 256, 256]                                             2,624     
SyncBatchNorm-3                                        [[1, 64, 256, 256]]                                                                              [1, 64, 256, 256]                                              256      
    ConvBN-1                                           [[1, 40, 256, 256]]                                                                              [1, 64, 256, 256]                                               0       
    Conv2D-7                                           [[1, 3, 256, 256]]                                                                               [1, 64, 256, 256]                                              256      
SyncBatchNorm-4                                        [[1, 64, 256, 256]]                                                                              [1, 64, 256, 256]                                              256      
    ConvBN-2                                           [[1, 3, 256, 256]]                                                                               [1, 64, 256, 256]                                               0       
 HSBottleNeck-1                                        [[1, 3, 256, 256]]                                                                               [1, 64, 256, 256]                                               0       
    Conv2D-8                                           [[1, 64, 256, 256]]                                                                              [1, 40, 256, 256]                                             2,600     
SyncBatchNorm-5                                        [[1, 40, 256, 256]]                                                                              [1, 40, 256, 256]                                              160      
  ConvBNReLU-2                                         [[1, 64, 256, 256]]                                                                              [1, 40, 256, 256]                                               0       
    Conv2D-9                                           [[1, 8, 256, 256]]                                                                               [1, 8, 256, 256]                                               584      
   Conv2D-10                                           [[1, 12, 256, 256]]                                                                              [1, 12, 256, 256]                                             1,308     
   Conv2D-11                                           [[1, 14, 256, 256]]                                                                              [1, 14, 256, 256]                                             1,778     
   Conv2D-12                                           [[1, 15, 256, 256]]                                                                              [1, 15, 256, 256]                                             2,040     
   HSBlock-2                                           [[1, 40, 256, 256]]                                                                              [1, 40, 256, 256]                                               0       
SyncBatchNorm-6                                        [[1, 40, 256, 256]]                                                                              [1, 40, 256, 256]                                              160      
HSBlockBNReLU-2                                        [[1, 40, 256, 256]]                                                                              [1, 40, 256, 256]                                               0       
   Conv2D-13                                           [[1, 40, 256, 256]]                                                                              [1, 64, 256, 256]                                             2,624     
SyncBatchNorm-7                                        [[1, 64, 256, 256]]                                                                              [1, 64, 256, 256]                                              256      
    ConvBN-3                                           [[1, 40, 256, 256]]                                                                              [1, 64, 256, 256]                                               0       
 HSBottleNeck-2                                        [[1, 64, 256, 256]]                                                                              [1, 64, 256, 256]                                               0       
  MaxPool2D-1                                          [[1, 64, 256, 256]]                                                                              [1, 64, 128, 128]                                               0       
   Conv2D-14                                           [[1, 64, 128, 128]]                                                                              [1, 40, 128, 128]                                             2,600     
SyncBatchNorm-8                                        [[1, 40, 128, 128]]                                                                              [1, 40, 128, 128]                                              160      
  ConvBNReLU-3                                         [[1, 64, 128, 128]]                                                                              [1, 40, 128, 128]                                               0       
   Conv2D-15                                           [[1, 8, 128, 128]]                                                                               [1, 8, 128, 128]                                               584      
   Conv2D-16                                           [[1, 12, 128, 128]]                                                                              [1, 12, 128, 128]                                             1,308     
   Conv2D-17                                           [[1, 14, 128, 128]]                                                                              [1, 14, 128, 128]                                             1,778     
   Conv2D-18                                           [[1, 15, 128, 128]]                                                                              [1, 15, 128, 128]                                             2,040     
   HSBlock-3                                           [[1, 40, 128, 128]]                                                                              [1, 40, 128, 128]                                               0       
SyncBatchNorm-9                                        [[1, 40, 128, 128]]                                                                              [1, 40, 128, 128]                                              160      
HSBlockBNReLU-3                                        [[1, 40, 128, 128]]                                                                              [1, 40, 128, 128]                                               0       
   Conv2D-19                                           [[1, 40, 128, 128]]                                                                             [1, 128, 128, 128]                                             5,248     
SyncBatchNorm-10                                      [[1, 128, 128, 128]]                                                                             [1, 128, 128, 128]                                              512      
    ConvBN-4                                           [[1, 40, 128, 128]]                                                                             [1, 128, 128, 128]                                               0       
   Conv2D-20                                           [[1, 64, 128, 128]]                                                                             [1, 128, 128, 128]                                             8,320     
SyncBatchNorm-11                                      [[1, 128, 128, 128]]                                                                             [1, 128, 128, 128]                                              512      
    ConvBN-5                                           [[1, 64, 128, 128]]                                                                             [1, 128, 128, 128]                                               0       
 HSBottleNeck-3                                        [[1, 64, 128, 128]]                                                                             [1, 128, 128, 128]                                               0       
   Conv2D-21                                          [[1, 128, 128, 128]]                                                                              [1, 40, 128, 128]                                             5,160     
SyncBatchNorm-12                                       [[1, 40, 128, 128]]                                                                              [1, 40, 128, 128]                                              160      
  ConvBNReLU-4                                        [[1, 128, 128, 128]]                                                                              [1, 40, 128, 128]                                               0       
   Conv2D-22                                           [[1, 8, 128, 128]]                                                                               [1, 8, 128, 128]                                               584      
   Conv2D-23                                           [[1, 12, 128, 128]]                                                                              [1, 12, 128, 128]                                             1,308     
   Conv2D-24                                           [[1, 14, 128, 128]]                                                                              [1, 14, 128, 128]                                             1,778     
   Conv2D-25                                           [[1, 15, 128, 128]]                                                                              [1, 15, 128, 128]                                             2,040     
   HSBlock-4                                           [[1, 40, 128, 128]]                                                                              [1, 40, 128, 128]                                               0       
SyncBatchNorm-13                                       [[1, 40, 128, 128]]                                                                              [1, 40, 128, 128]                                              160      
HSBlockBNReLU-4                                        [[1, 40, 128, 128]]                                                                              [1, 40, 128, 128]                                               0       
   Conv2D-26                                           [[1, 40, 128, 128]]                                                                             [1, 128, 128, 128]                                             5,248     
SyncBatchNorm-14                                      [[1, 128, 128, 128]]                                                                             [1, 128, 128, 128]                                              512      
    ConvBN-6                                           [[1, 40, 128, 128]]                                                                             [1, 128, 128, 128]                                               0       
 HSBottleNeck-4                                       [[1, 128, 128, 128]]                                                                             [1, 128, 128, 128]                                               0       
  MaxPool2D-2                                         [[1, 128, 128, 128]]                                                                              [1, 128, 64, 64]                                                0       
   Conv2D-27                                           [[1, 128, 64, 64]]                                                                                [1, 40, 64, 64]                                              5,160     
SyncBatchNorm-15                                        [[1, 40, 64, 64]]                                                                                [1, 40, 64, 64]                                               160      
  ConvBNReLU-5                                         [[1, 128, 64, 64]]                                                                                [1, 40, 64, 64]                                                0       
   Conv2D-28                                            [[1, 8, 64, 64]]                                                                                 [1, 8, 64, 64]                                                584      
   Conv2D-29                                            [[1, 12, 64, 64]]                                                                                [1, 12, 64, 64]                                              1,308     
   Conv2D-30                                            [[1, 14, 64, 64]]                                                                                [1, 14, 64, 64]                                              1,778     
   Conv2D-31                                            [[1, 15, 64, 64]]                                                                                [1, 15, 64, 64]                                              2,040     
   HSBlock-5                                            [[1, 40, 64, 64]]                                                                                [1, 40, 64, 64]                                                0       
SyncBatchNorm-16                                        [[1, 40, 64, 64]]                                                                                [1, 40, 64, 64]                                               160      
HSBlockBNReLU-5                                         [[1, 40, 64, 64]]                                                                                [1, 40, 64, 64]                                                0       
   Conv2D-32                                            [[1, 40, 64, 64]]                                                                               [1, 256, 64, 64]                                             10,496     
SyncBatchNorm-17                                       [[1, 256, 64, 64]]                                                                               [1, 256, 64, 64]                                              1,024     
    ConvBN-7                                            [[1, 40, 64, 64]]                                                                               [1, 256, 64, 64]                                                0       
   Conv2D-33                                           [[1, 128, 64, 64]]                                                                               [1, 256, 64, 64]                                             33,024     
SyncBatchNorm-18                                       [[1, 256, 64, 64]]                                                                               [1, 256, 64, 64]                                              1,024     
    ConvBN-8                                           [[1, 128, 64, 64]]                                                                               [1, 256, 64, 64]                                                0       
 HSBottleNeck-5                                        [[1, 128, 64, 64]]                                                                               [1, 256, 64, 64]                                                0       
   Conv2D-34                                           [[1, 256, 64, 64]]                                                                                [1, 40, 64, 64]                                             10,280     
SyncBatchNorm-19                                        [[1, 40, 64, 64]]                                                                                [1, 40, 64, 64]                                               160      
  ConvBNReLU-6                                         [[1, 256, 64, 64]]                                                                                [1, 40, 64, 64]                                                0       
   Conv2D-35                                            [[1, 8, 64, 64]]                                                                                 [1, 8, 64, 64]                                                584      
   Conv2D-36                                            [[1, 12, 64, 64]]                                                                                [1, 12, 64, 64]                                              1,308     
   Conv2D-37                                            [[1, 14, 64, 64]]                                                                                [1, 14, 64, 64]                                              1,778     
   Conv2D-38                                            [[1, 15, 64, 64]]                                                                                [1, 15, 64, 64]                                              2,040     
   HSBlock-6                                            [[1, 40, 64, 64]]                                                                                [1, 40, 64, 64]                                                0       
SyncBatchNorm-20                                        [[1, 40, 64, 64]]                                                                                [1, 40, 64, 64]                                               160      
HSBlockBNReLU-6                                         [[1, 40, 64, 64]]                                                                                [1, 40, 64, 64]                                                0       
   Conv2D-39                                            [[1, 40, 64, 64]]                                                                               [1, 256, 64, 64]                                             10,496     
SyncBatchNorm-21                                       [[1, 256, 64, 64]]                                                                               [1, 256, 64, 64]                                              1,024     
    ConvBN-9                                            [[1, 40, 64, 64]]                                                                               [1, 256, 64, 64]                                                0       
 HSBottleNeck-6                                        [[1, 256, 64, 64]]                                                                               [1, 256, 64, 64]                                                0       
  MaxPool2D-3                                          [[1, 256, 64, 64]]                                                                               [1, 256, 32, 32]                                                0       
   Conv2D-40                                           [[1, 256, 32, 32]]                                                                                [1, 40, 32, 32]                                             10,280     
SyncBatchNorm-22                                        [[1, 40, 32, 32]]                                                                                [1, 40, 32, 32]                                               160      
  ConvBNReLU-7                                         [[1, 256, 32, 32]]                                                                                [1, 40, 32, 32]                                                0       
   Conv2D-41                                            [[1, 8, 32, 32]]                                                                                 [1, 8, 32, 32]                                                584      
   Conv2D-42                                            [[1, 12, 32, 32]]                                                                                [1, 12, 32, 32]                                              1,308     
   Conv2D-43                                            [[1, 14, 32, 32]]                                                                                [1, 14, 32, 32]                                              1,778     
   Conv2D-44                                            [[1, 15, 32, 32]]                                                                                [1, 15, 32, 32]                                              2,040     
   HSBlock-7                                            [[1, 40, 32, 32]]                                                                                [1, 40, 32, 32]                                                0       
SyncBatchNorm-23                                        [[1, 40, 32, 32]]                                                                                [1, 40, 32, 32]                                               160      
HSBlockBNReLU-7                                         [[1, 40, 32, 32]]                                                                                [1, 40, 32, 32]                                                0       
   Conv2D-45                                            [[1, 40, 32, 32]]                                                                               [1, 512, 32, 32]                                             20,992     
SyncBatchNorm-24                                       [[1, 512, 32, 32]]                                                                               [1, 512, 32, 32]                                              2,048     
   ConvBN-10                                            [[1, 40, 32, 32]]                                                                               [1, 512, 32, 32]                                                0       
   Conv2D-46                                           [[1, 256, 32, 32]]                                                                               [1, 512, 32, 32]                                             131,584    
SyncBatchNorm-25                                       [[1, 512, 32, 32]]                                                                               [1, 512, 32, 32]                                              2,048     
   ConvBN-11                                           [[1, 256, 32, 32]]                                                                               [1, 512, 32, 32]                                                0       
 HSBottleNeck-7                                        [[1, 256, 32, 32]]                                                                               [1, 512, 32, 32]                                                0       
   Conv2D-47                                           [[1, 512, 32, 32]]                                                                                [1, 40, 32, 32]                                             20,520     
SyncBatchNorm-26                                        [[1, 40, 32, 32]]                                                                                [1, 40, 32, 32]                                               160      
  ConvBNReLU-8                                         [[1, 512, 32, 32]]                                                                                [1, 40, 32, 32]                                                0       
   Conv2D-48                                            [[1, 8, 32, 32]]                                                                                 [1, 8, 32, 32]                                                584      
   Conv2D-49                                            [[1, 12, 32, 32]]                                                                                [1, 12, 32, 32]                                              1,308     
   Conv2D-50                                            [[1, 14, 32, 32]]                                                                                [1, 14, 32, 32]                                              1,778     
   Conv2D-51                                            [[1, 15, 32, 32]]                                                                                [1, 15, 32, 32]                                              2,040     
   HSBlock-8                                            [[1, 40, 32, 32]]                                                                                [1, 40, 32, 32]                                                0       
SyncBatchNorm-27                                        [[1, 40, 32, 32]]                                                                                [1, 40, 32, 32]                                               160      
HSBlockBNReLU-8                                         [[1, 40, 32, 32]]                                                                                [1, 40, 32, 32]                                                0       
   Conv2D-52                                            [[1, 40, 32, 32]]                                                                               [1, 512, 32, 32]                                             20,992     
SyncBatchNorm-28                                       [[1, 512, 32, 32]]                                                                               [1, 512, 32, 32]                                              2,048     
   ConvBN-12                                            [[1, 40, 32, 32]]                                                                               [1, 512, 32, 32]                                                0       
 HSBottleNeck-8                                        [[1, 512, 32, 32]]                                                                               [1, 512, 32, 32]                                                0       
  MaxPool2D-4                                          [[1, 512, 32, 32]]                                                                               [1, 512, 16, 16]                                                0       
   Conv2D-53                                           [[1, 512, 16, 16]]                                                                                [1, 40, 16, 16]                                             20,520     
SyncBatchNorm-29                                        [[1, 40, 16, 16]]                                                                                [1, 40, 16, 16]                                               160      
  ConvBNReLU-9                                         [[1, 512, 16, 16]]                                                                                [1, 40, 16, 16]                                                0       
   Conv2D-54                                            [[1, 8, 16, 16]]                                                                                 [1, 8, 16, 16]                                                584      
   Conv2D-55                                            [[1, 12, 16, 16]]                                                                                [1, 12, 16, 16]                                              1,308     
   Conv2D-56                                            [[1, 14, 16, 16]]                                                                                [1, 14, 16, 16]                                              1,778     
   Conv2D-57                                            [[1, 15, 16, 16]]                                                                                [1, 15, 16, 16]                                              2,040     
   HSBlock-9                                            [[1, 40, 16, 16]]                                                                                [1, 40, 16, 16]                                                0       
SyncBatchNorm-30                                        [[1, 40, 16, 16]]                                                                                [1, 40, 16, 16]                                               160      
HSBlockBNReLU-9                                         [[1, 40, 16, 16]]                                                                                [1, 40, 16, 16]                                                0       
   Conv2D-58                                            [[1, 40, 16, 16]]                                                                               [1, 512, 16, 16]                                             20,992     
SyncBatchNorm-31                                       [[1, 512, 16, 16]]                                                                               [1, 512, 16, 16]                                              2,048     
   ConvBN-13                                            [[1, 40, 16, 16]]                                                                               [1, 512, 16, 16]                                                0       
 HSBottleNeck-9                                        [[1, 512, 16, 16]]                                                                               [1, 512, 16, 16]                                                0       
   Conv2D-59                                           [[1, 512, 16, 16]]                                                                                [1, 40, 16, 16]                                             20,520     
SyncBatchNorm-32                                        [[1, 40, 16, 16]]                                                                                [1, 40, 16, 16]                                               160      
 ConvBNReLU-10                                         [[1, 512, 16, 16]]                                                                                [1, 40, 16, 16]                                                0       
   Conv2D-60                                            [[1, 8, 16, 16]]                                                                                 [1, 8, 16, 16]                                                584      
   Conv2D-61                                            [[1, 12, 16, 16]]                                                                                [1, 12, 16, 16]                                              1,308     
   Conv2D-62                                            [[1, 14, 16, 16]]                                                                                [1, 14, 16, 16]                                              1,778     
   Conv2D-63                                            [[1, 15, 16, 16]]                                                                                [1, 15, 16, 16]                                              2,040     
   HSBlock-10                                           [[1, 40, 16, 16]]                                                                                [1, 40, 16, 16]                                                0       
SyncBatchNorm-33                                        [[1, 40, 16, 16]]                                                                                [1, 40, 16, 16]                                               160      
HSBlockBNReLU-10                                        [[1, 40, 16, 16]]                                                                                [1, 40, 16, 16]                                                0       
   Conv2D-64                                            [[1, 40, 16, 16]]                                                                               [1, 512, 16, 16]                                             20,992     
SyncBatchNorm-34                                       [[1, 512, 16, 16]]                                                                               [1, 512, 16, 16]                                              2,048     
   ConvBN-14                                            [[1, 40, 16, 16]]                                                                               [1, 512, 16, 16]                                                0       
HSBottleNeck-10                                        [[1, 512, 16, 16]]                                                                               [1, 512, 16, 16]                                                0       
   Encoder-1                                           [[1, 3, 256, 256]]                                        [[1, 512, 16, 16], [[1, 64, 256, 256], [1, 128, 128, 128], [1, 256, 64, 64], [1, 512, 32, 32]]]        0       
   Conv2D-65                                           [[1, 1024, 32, 32]]                                                                               [1, 40, 32, 32]                                             41,000     
SyncBatchNorm-35                                        [[1, 40, 32, 32]]                                                                                [1, 40, 32, 32]                                               160      
 ConvBNReLU-11                                         [[1, 1024, 32, 32]]                                                                               [1, 40, 32, 32]                                                0       
   Conv2D-66                                            [[1, 8, 32, 32]]                                                                                 [1, 8, 32, 32]                                                584      
   Conv2D-67                                            [[1, 12, 32, 32]]                                                                                [1, 12, 32, 32]                                              1,308     
   Conv2D-68                                            [[1, 14, 32, 32]]                                                                                [1, 14, 32, 32]                                              1,778     
   Conv2D-69                                            [[1, 15, 32, 32]]                                                                                [1, 15, 32, 32]                                              2,040     
   HSBlock-11                                           [[1, 40, 32, 32]]                                                                                [1, 40, 32, 32]                                                0       
SyncBatchNorm-36                                        [[1, 40, 32, 32]]                                                                                [1, 40, 32, 32]                                               160      
HSBlockBNReLU-11                                        [[1, 40, 32, 32]]                                                                                [1, 40, 32, 32]                                                0       
   Conv2D-70                                            [[1, 40, 32, 32]]                                                                               [1, 256, 32, 32]                                             10,496     
SyncBatchNorm-37                                       [[1, 256, 32, 32]]                                                                               [1, 256, 32, 32]                                              1,024     
   ConvBN-15                                            [[1, 40, 32, 32]]                                                                               [1, 256, 32, 32]                                                0       
   Conv2D-71                                           [[1, 1024, 32, 32]]                                                                              [1, 256, 32, 32]                                             262,400    
SyncBatchNorm-38                                       [[1, 256, 32, 32]]                                                                               [1, 256, 32, 32]                                              1,024     
   ConvBN-16                                           [[1, 1024, 32, 32]]                                                                              [1, 256, 32, 32]                                                0       
HSBottleNeck-11                                        [[1, 1024, 32, 32]]                                                                              [1, 256, 32, 32]                                                0       
   Conv2D-72                                           [[1, 256, 32, 32]]                                                                                [1, 40, 32, 32]                                             10,280     
SyncBatchNorm-39                                        [[1, 40, 32, 32]]                                                                                [1, 40, 32, 32]                                               160      
 ConvBNReLU-12                                         [[1, 256, 32, 32]]                                                                                [1, 40, 32, 32]                                                0       
   Conv2D-73                                            [[1, 8, 32, 32]]                                                                                 [1, 8, 32, 32]                                                584      
   Conv2D-74                                            [[1, 12, 32, 32]]                                                                                [1, 12, 32, 32]                                              1,308     
   Conv2D-75                                            [[1, 14, 32, 32]]                                                                                [1, 14, 32, 32]                                              1,778     
   Conv2D-76                                            [[1, 15, 32, 32]]                                                                                [1, 15, 32, 32]                                              2,040     
   HSBlock-12                                           [[1, 40, 32, 32]]                                                                                [1, 40, 32, 32]                                                0       
SyncBatchNorm-40                                        [[1, 40, 32, 32]]                                                                                [1, 40, 32, 32]                                               160      
HSBlockBNReLU-12                                        [[1, 40, 32, 32]]                                                                                [1, 40, 32, 32]                                                0       
   Conv2D-77                                            [[1, 40, 32, 32]]                                                                               [1, 256, 32, 32]                                             10,496     
SyncBatchNorm-41                                       [[1, 256, 32, 32]]                                                                               [1, 256, 32, 32]                                              1,024     
   ConvBN-17                                            [[1, 40, 32, 32]]                                                                               [1, 256, 32, 32]                                                0       
HSBottleNeck-12                                        [[1, 256, 32, 32]]                                                                               [1, 256, 32, 32]                                                0       
  UpSampling-1                                [[1, 512, 16, 16], [1, 512, 32, 32]]                                                                      [1, 256, 32, 32]                                                0       
   Conv2D-78                                           [[1, 512, 64, 64]]                                                                                [1, 40, 64, 64]                                             20,520     
SyncBatchNorm-42                                        [[1, 40, 64, 64]]                                                                                [1, 40, 64, 64]                                               160      
 ConvBNReLU-13                                         [[1, 512, 64, 64]]                                                                                [1, 40, 64, 64]                                                0       
   Conv2D-79                                            [[1, 8, 64, 64]]                                                                                 [1, 8, 64, 64]                                                584      
   Conv2D-80                                            [[1, 12, 64, 64]]                                                                                [1, 12, 64, 64]                                              1,308     
   Conv2D-81                                            [[1, 14, 64, 64]]                                                                                [1, 14, 64, 64]                                              1,778     
   Conv2D-82                                            [[1, 15, 64, 64]]                                                                                [1, 15, 64, 64]                                              2,040     
   HSBlock-13                                           [[1, 40, 64, 64]]                                                                                [1, 40, 64, 64]                                                0       
SyncBatchNorm-43                                        [[1, 40, 64, 64]]                                                                                [1, 40, 64, 64]                                               160      
HSBlockBNReLU-13                                        [[1, 40, 64, 64]]                                                                                [1, 40, 64, 64]                                                0       
   Conv2D-83                                            [[1, 40, 64, 64]]                                                                               [1, 128, 64, 64]                                              5,248     
SyncBatchNorm-44                                       [[1, 128, 64, 64]]                                                                               [1, 128, 64, 64]                                               512      
   ConvBN-18                                            [[1, 40, 64, 64]]                                                                               [1, 128, 64, 64]                                                0       
   Conv2D-84                                           [[1, 512, 64, 64]]                                                                               [1, 128, 64, 64]                                             65,664     
SyncBatchNorm-45                                       [[1, 128, 64, 64]]                                                                               [1, 128, 64, 64]                                               512      
   ConvBN-19                                           [[1, 512, 64, 64]]                                                                               [1, 128, 64, 64]                                                0       
HSBottleNeck-13                                        [[1, 512, 64, 64]]                                                                               [1, 128, 64, 64]                                                0       
   Conv2D-85                                           [[1, 128, 64, 64]]                                                                                [1, 40, 64, 64]                                              5,160     
SyncBatchNorm-46                                        [[1, 40, 64, 64]]                                                                                [1, 40, 64, 64]                                               160      
 ConvBNReLU-14                                         [[1, 128, 64, 64]]                                                                                [1, 40, 64, 64]                                                0       
   Conv2D-86                                            [[1, 8, 64, 64]]                                                                                 [1, 8, 64, 64]                                                584      
   Conv2D-87                                            [[1, 12, 64, 64]]                                                                                [1, 12, 64, 64]                                              1,308     
   Conv2D-88                                            [[1, 14, 64, 64]]                                                                                [1, 14, 64, 64]                                              1,778     
   Conv2D-89                                            [[1, 15, 64, 64]]                                                                                [1, 15, 64, 64]                                              2,040     
   HSBlock-14                                           [[1, 40, 64, 64]]                                                                                [1, 40, 64, 64]                                                0       
SyncBatchNorm-47                                        [[1, 40, 64, 64]]                                                                                [1, 40, 64, 64]                                               160      
HSBlockBNReLU-14                                        [[1, 40, 64, 64]]                                                                                [1, 40, 64, 64]                                                0       
   Conv2D-90                                            [[1, 40, 64, 64]]                                                                               [1, 128, 64, 64]                                              5,248     
SyncBatchNorm-48                                       [[1, 128, 64, 64]]                                                                               [1, 128, 64, 64]                                               512      
   ConvBN-20                                            [[1, 40, 64, 64]]                                                                               [1, 128, 64, 64]                                                0       
HSBottleNeck-14                                        [[1, 128, 64, 64]]                                                                               [1, 128, 64, 64]                                                0       
  UpSampling-2                                [[1, 256, 32, 32], [1, 256, 64, 64]]                                                                      [1, 128, 64, 64]                                                0       
   Conv2D-91                                          [[1, 256, 128, 128]]                                                                              [1, 40, 128, 128]                                            10,280     
SyncBatchNorm-49                                       [[1, 40, 128, 128]]                                                                              [1, 40, 128, 128]                                              160      
 ConvBNReLU-15                                        [[1, 256, 128, 128]]                                                                              [1, 40, 128, 128]                                               0       
   Conv2D-92                                           [[1, 8, 128, 128]]                                                                               [1, 8, 128, 128]                                               584      
   Conv2D-93                                           [[1, 12, 128, 128]]                                                                              [1, 12, 128, 128]                                             1,308     
   Conv2D-94                                           [[1, 14, 128, 128]]                                                                              [1, 14, 128, 128]                                             1,778     
   Conv2D-95                                           [[1, 15, 128, 128]]                                                                              [1, 15, 128, 128]                                             2,040     
   HSBlock-15                                          [[1, 40, 128, 128]]                                                                              [1, 40, 128, 128]                                               0       
SyncBatchNorm-50                                       [[1, 40, 128, 128]]                                                                              [1, 40, 128, 128]                                              160      
HSBlockBNReLU-15                                       [[1, 40, 128, 128]]                                                                              [1, 40, 128, 128]                                               0       
   Conv2D-96                                           [[1, 40, 128, 128]]                                                                              [1, 64, 128, 128]                                             2,624     
SyncBatchNorm-51                                       [[1, 64, 128, 128]]                                                                              [1, 64, 128, 128]                                              256      
   ConvBN-21                                           [[1, 40, 128, 128]]                                                                              [1, 64, 128, 128]                                               0       
   Conv2D-97                                          [[1, 256, 128, 128]]                                                                              [1, 64, 128, 128]                                            16,448     
SyncBatchNorm-52                                       [[1, 64, 128, 128]]                                                                              [1, 64, 128, 128]                                              256      
   ConvBN-22                                          [[1, 256, 128, 128]]                                                                              [1, 64, 128, 128]                                               0       
HSBottleNeck-15                                       [[1, 256, 128, 128]]                                                                              [1, 64, 128, 128]                                               0       
   Conv2D-98                                           [[1, 64, 128, 128]]                                                                              [1, 40, 128, 128]                                             2,600     
SyncBatchNorm-53                                       [[1, 40, 128, 128]]                                                                              [1, 40, 128, 128]                                              160      
 ConvBNReLU-16                                         [[1, 64, 128, 128]]                                                                              [1, 40, 128, 128]                                               0       
   Conv2D-99                                           [[1, 8, 128, 128]]                                                                               [1, 8, 128, 128]                                               584      
   Conv2D-100                                          [[1, 12, 128, 128]]                                                                              [1, 12, 128, 128]                                             1,308     
   Conv2D-101                                          [[1, 14, 128, 128]]                                                                              [1, 14, 128, 128]                                             1,778     
   Conv2D-102                                          [[1, 15, 128, 128]]                                                                              [1, 15, 128, 128]                                             2,040     
   HSBlock-16                                          [[1, 40, 128, 128]]                                                                              [1, 40, 128, 128]                                               0       
SyncBatchNorm-54                                       [[1, 40, 128, 128]]                                                                              [1, 40, 128, 128]                                              160      
HSBlockBNReLU-16                                       [[1, 40, 128, 128]]                                                                              [1, 40, 128, 128]                                               0       
   Conv2D-103                                          [[1, 40, 128, 128]]                                                                              [1, 64, 128, 128]                                             2,624     
SyncBatchNorm-55                                       [[1, 64, 128, 128]]                                                                              [1, 64, 128, 128]                                              256      
   ConvBN-23                                           [[1, 40, 128, 128]]                                                                              [1, 64, 128, 128]                                               0       
HSBottleNeck-16                                        [[1, 64, 128, 128]]                                                                              [1, 64, 128, 128]                                               0       
  UpSampling-3                               [[1, 128, 64, 64], [1, 128, 128, 128]]                                                                     [1, 64, 128, 128]                                               0       
   Conv2D-104                                         [[1, 128, 256, 256]]                                                                              [1, 40, 256, 256]                                             5,160     
SyncBatchNorm-56                                       [[1, 40, 256, 256]]                                                                              [1, 40, 256, 256]                                              160      
 ConvBNReLU-17                                        [[1, 128, 256, 256]]                                                                              [1, 40, 256, 256]                                               0       
   Conv2D-105                                          [[1, 8, 256, 256]]                                                                               [1, 8, 256, 256]                                               584      
   Conv2D-106                                          [[1, 12, 256, 256]]                                                                              [1, 12, 256, 256]                                             1,308     
   Conv2D-107                                          [[1, 14, 256, 256]]                                                                              [1, 14, 256, 256]                                             1,778     
   Conv2D-108                                          [[1, 15, 256, 256]]                                                                              [1, 15, 256, 256]                                             2,040     
   HSBlock-17                                          [[1, 40, 256, 256]]                                                                              [1, 40, 256, 256]                                               0       
SyncBatchNorm-57                                       [[1, 40, 256, 256]]                                                                              [1, 40, 256, 256]                                              160      
HSBlockBNReLU-17                                       [[1, 40, 256, 256]]                                                                              [1, 40, 256, 256]                                               0       
   Conv2D-109                                          [[1, 40, 256, 256]]                                                                              [1, 64, 256, 256]                                             2,624     
SyncBatchNorm-58                                       [[1, 64, 256, 256]]                                                                              [1, 64, 256, 256]                                              256      
   ConvBN-24                                           [[1, 40, 256, 256]]                                                                              [1, 64, 256, 256]                                               0       
   Conv2D-110                                         [[1, 128, 256, 256]]                                                                              [1, 64, 256, 256]                                             8,256     
SyncBatchNorm-59                                       [[1, 64, 256, 256]]                                                                              [1, 64, 256, 256]                                              256      
   ConvBN-25                                          [[1, 128, 256, 256]]                                                                              [1, 64, 256, 256]                                               0       
HSBottleNeck-17                                       [[1, 128, 256, 256]]                                                                              [1, 64, 256, 256]                                               0       
   Conv2D-111                                          [[1, 64, 256, 256]]                                                                              [1, 40, 256, 256]                                             2,600     
SyncBatchNorm-60                                       [[1, 40, 256, 256]]                                                                              [1, 40, 256, 256]                                              160      
 ConvBNReLU-18                                         [[1, 64, 256, 256]]                                                                              [1, 40, 256, 256]                                               0       
   Conv2D-112                                          [[1, 8, 256, 256]]                                                                               [1, 8, 256, 256]                                               584      
   Conv2D-113                                          [[1, 12, 256, 256]]                                                                              [1, 12, 256, 256]                                             1,308     
   Conv2D-114                                          [[1, 14, 256, 256]]                                                                              [1, 14, 256, 256]                                             1,778     
   Conv2D-115                                          [[1, 15, 256, 256]]                                                                              [1, 15, 256, 256]                                             2,040     
   HSBlock-18                                          [[1, 40, 256, 256]]                                                                              [1, 40, 256, 256]                                               0       
SyncBatchNorm-61                                       [[1, 40, 256, 256]]                                                                              [1, 40, 256, 256]                                              160      
HSBlockBNReLU-18                                       [[1, 40, 256, 256]]                                                                              [1, 40, 256, 256]                                               0       
   Conv2D-116                                          [[1, 40, 256, 256]]                                                                              [1, 64, 256, 256]                                             2,624     
SyncBatchNorm-62                                       [[1, 64, 256, 256]]                                                                              [1, 64, 256, 256]                                              256      
   ConvBN-26                                           [[1, 40, 256, 256]]                                                                              [1, 64, 256, 256]                                               0       
HSBottleNeck-18                                        [[1, 64, 256, 256]]                                                                              [1, 64, 256, 256]                                               0       
  UpSampling-4                               [[1, 64, 128, 128], [1, 64, 256, 256]]                                                                     [1, 64, 256, 256]                                               0       
   Decoder-1     [[1, 512, 16, 16], [[1, 64, 256, 256], [1, 128, 128, 128], [1, 256, 64, 64], [1, 512, 32, 32]]]                                        [1, 64, 256, 256]                                               0       
   Conv2D-117                                          [[1, 64, 256, 256]]                                                                              [1, 3, 256, 256]                                              1,731     
==================================================================================================================================================================================================================================
Total params: 1,016,071
Trainable params: 988,551
Non-trainable params: 27,520
----------------------------------------------------------------------------------------------------------------------------------------------------------------------------------------------------------------------------------
…
